model.pth (torch, 658549 bytes, 16 tensors)

weight f4 [16, 4, 5, 5]
00000000: e34c e79f dbfb 091f aa85 a31f 3b70 af9e
00000010: e3c0 659d 84bf 1b9f 6a14 d01f 7fc7 d99f
00000020: 5350 969f 9de9 5a1f 3090 409f 9e0c e29e
00000030: ff9d 511f 2117 2a9f c1e2 a41f ed0c 209f
00000040: db77 7e9f 93fd 8b9f f9cd 699f 1075 ca1e
00000050: dfaa f21f 9e76 ec1f 7b1b 551f 7e41 989f
00000060: 7958 411e 45d6 a09f 5dd8 c41f bc12 881e
00000070: 4b54 831f a983 3e1f 730c e29f d6cd 019e
00000080: 4780 c21f 1b56 9d1c f5dd ca9f 9423 2a9f
00000090: 39d8 991f 8024 e69f 8a88 9b1f b9db 209d
000000a0: ef8c bb1e a14a ba1f fc29 bf1f e0ae bf1d
000000b0: 097a 879f 6eec 2b1e 9ff7 399f faac 931f
000000c0: a7e3 ad1d 6782 d89f c0d5 cc9f 3f69 2e1f
000000d0: 9bf2 de1f 2b75 d81d a425 b91f c11b 9d1f
000000e0: 6144 7a9e b59c 881f f400 441f 3c0e c69f
000000f0: 9883 979f 5a09 6e1e 7c84 d79f 29d9 a59e
00000100: 1dff 581f de85 891f 2897 891f d792 2c9f
00000110: 957b 629c bc50 b81f 114e 051f 30ca e39f
00000120: b444 ce1f 7f69 df9f 6bf3 139f 6ffd db1f
00000130: 1a4b 111f 522b 401e 3107 899f a0f4 0c1f
00000140: fb44 6a9f e76a 711e dfd7 a39f 232b dd1f
00000150: 6ab1 c41f 654d be9f 346a f99b d03b 0b1f
00000160: ad50 c71f d9d7 569f a64c c79f e797 c39f
00000170: 1d97 b39f 2064 d79e 2339 ca9f 97a7 e01f
00000180: 1cf4 809f fed8 c29f c4c6 f21e a29b a31f
00000190: 1149 801f 31f8 bb1f 6ec6 aa1f a10b 539f
000001a0: aec2 b61e 46ea c31f 6cc5 a69e 896e 139e
000001b0: 0f95 c81e 02de 289d 5d04 b71f 6ace 019f
000001c0: f869 859f 33d4 231f 7cfd 9d9e 220a 191f
000001d0: 6f09 769f 11aa 859f d895 929f b290 fd9e
000001e0: 35d2 b49f 356d d01e 1d99 5d1f cdcc 9d9f
000001f0: 949c a19f 43c8 d91f 68c6 9e9e c0cb c69e
00000200: 263d c79f 4d17 4c1f f281 ca1f cbf3 911e
00000210: c390 941e dafb 881f 3376 919f 8225 c99f
00000220: 821b a71e b46f a49f ff60 6d1d 5cfd 591f
00000230: 875e eb9f 30c6 0c1e 6407 9f1f d217 0c9f
00000240: b0cf 579e 2cde d69e 14f5 8d1f a643 559f
00000250: ab70 de1e 9252 ea9f 1faf 579f 5bfc c11f
00000260: 6a29 e09e d782 919f 957c 9d1f 14ee 2d1e
00000270: e84a bf9f a21c 289e 29f0 019f d8cf d61f
00000280: 86ee 761f ac12 2b9f e7be 921e 26f9 cf1e
00000290: 93ad 031f 6f3f ab9f b4f9 b29f fc7a de1f
000002a0: f062 041f 2b70 671f d19b ab1e cc53 f69d
000002b0: 1392 de1f 0682 919f ae3a eb1f 3b73 f19f
000002c0: 8bcf 391f afd5 591e 2e0d bb1f a8ed 4e1f
000002d0: 2aad cc1f 3785 4c1f de4f ee9d ec0a 289e
000002e0: b75c 709f 38a9 a09e 2b45 d99f 66cf 8f9f
000002f0: 8439 a89f 7a8d 611e b416 991d 43d4 109f
00000300: 07fd 4e9f a5a0 9b9f 7e56 761f 5361 c09f
00000310: 2916 151e 4fe2 d21d 424c b79f 7a4e 559f
00000320: 3a1e 0f9f 177a 1d1f 1a65 929f 712b e21f
00000330: d647 319f 1c25 c01f 55dc 591f 06f3 fb9e
00000340: 8af3 d41f 6016 a51d 874e 761f 989b c89e
00000350: d957 f11e 4cec bf9f e5de a89f 1fdf ef1e
00000360: a657 bd9f 2b45 599f 6fe5 6e9f 1e61 f29d
00000370: c871 7e1f 08df 7c9f 6505 ae1f d289 9e1e
00000380: 0380 d89f 585e bf1e f574 011f 4734 d79f
00000390: cd43 e69f 2b22 8d9f 6229 dc1f 61a7 171f
000003a0: 24d8 d11f 66a6 d01f 4f3c 191f 0772 b29f
000003b0: 27a5 b99f fc89 c19e 43e7 471f 8584 829f
000003c0: 54d3 989f e6c6 5f9f ee60 911f f90b 6d1f
000003d0: 37e6 dc1f 8796 af9f 9c0a 499e b903 0d1f
000003e0: 5076 241f 3446 bb9f 590e 951d a4ee 161e
000003f0: 43af dd1f e18e 401f 413c c31e 5749 a99f
-9.7959504e-20 2.921921e-20 6.9254314e-20 -1.8575263e-20 -3.0407618e-21 -3.2980945e-20 8.81252e-20 -9.2233113e-20
-6.3660356e-20 4.6356536e-20 -4.077685e-20 -2.3933899e-20 4.4388163e-20 -3.6018032e-20 6.9831835e-20 -3.389201e-20
-5.3885734e-20 -5.928829e-20 -4.9510046e-20 2.1435998e-20 1.0277367e-19 1.00146123e-19 4.5127236e-20 -6.448285e-20
1.0235631e-20 -6.8117115e-20 8.336717e-20 1.4407308e-20 5.562011e-20 4.0342972e-20 -9.573532e-20 -6.871769e-21
8.237441e-20 1.0411646e-21 -8.5917525e-20 -3.602833e-20 6.515573e-20 -9.746917e-20 6.587094e-20 -2.1289418e-21
1.9857684e-20 7.889753e-20 8.0961104e-20 5.0738096e-21 -5.7376614e-20 9.101557e-21 -3.93801e-20 6.254309e-20
4.6028106e-21 -9.169529e-20 -8.675098e-20 3.693299e-20 9.4422014e-20 5.7295873e-21 7.841282e-20 6.6538e-20
-1.324903e-20 5.785749e-20 4.1505403e-20 -8.387981e-20 -6.416869e-20 1.2601549e-20 -9.127522e-20 -1.755987e-20
4.5950804e-20 5.824322e-20 5.8271824e-20 -3.654388e-20 -7.4936853e-22 7.8060595e-20 2.822842e-20 -9.647273e-20
8.7358053e-20 -9.46187e-20 -3.132981e-20 9.316938e-20 3.0767067e-20 1.0173354e-20 -5.8033654e-20 2.9848502e-20
-4.9608487e-20 1.2780541e-20 -6.9390314e-20 9.3668504e-20 8.3302736e-20 -8.059617e-20 -4.1262227e-22 2.948387e-20
8.4413245e-20 -4.5494808e-20 -8.440658e-20 -8.2837014e-20 -7.6059445e-20 -2.2805421e-20 -8.564485e-20 9.5144944e-20
-5.4613954e-20 -8.252118e-20 2.5704954e-20 6.929066e-20 5.433099e-20 7.960818e-20 7.2326075e-20 -4.4690607e-20
1.9350517e-20 8.2973285e-20 -1.7657585e-20 -7.804973e-21 2.1237473e-20 -2.234939e-21 7.751073e-20 -2.7487554e-20
-5.6503e-20 3.469212e-20 -1.672786e-20 3.2407392e-20 -5.210033e-20 -5.660904e-20 -6.20813e-20 -2.6847262e-20
-7.6580724e-20 2.2068024e-20 4.6925223e-20 -6.68309e-20 -6.844519e-20 9.223438e-20 -1.681096e-20 -2.1048334e-20
-8.438094e-20 4.3217954e-20 8.5765304e-20 1.5453303e-20 1.5729982e-20 5.8014894e-20 -6.160543e-20 -8.518886e-20
1.769319e-20 -6.96415e-20 3.1416835e-21 4.616111e-20 -9.9682754e-20 7.4525225e-21 6.7351346e-20 -2.9665857e-20
-1.1424954e-20 -2.275002e-20 6.012127e-20 -4.5160462e-20 2.3551763e-20 -9.9239456e-20 -4.5672878e-20 8.2156167e-20
-2.3734051e-20 -6.1626345e-20 6.669819e-20 9.207777e-21 -8.101557e-20 -8.899767e-21 -2.7515468e-20 9.0976374e-20
5.2289828e-20 -3.6226104e-20 1.5537307e-20 2.2020023e-20 2.7883906e-20 -7.252626e-20 -7.579903e-20 9.422412e-20
2.8033926e-20 4.9008936e-20 1.8169773e-20 -6.52023e-21 9.4262317e-20 -6.1624994e-20 9.962345e-20 -1.022581e-19
3.934695e-20 1.1532073e-20 7.9219385e-20 4.381878e-20 8.6683837e-20 4.3308873e-20 -6.3080656e-21 -8.8961045e-21
-5.089867e-20 -1.7010646e-20 -9.2017504e-20 -6.090597e-20 -7.124592e-20 1.19406575e-20 4.0522237e-21 -3.0668765e-20
-4.3831496e-20 -6.591082e-20 5.216407e-20 -8.147617e-20 7.892577e-21 5.5820535e-21 -7.762967e-20 -4.516942e-20
-3.030643e-20 3.3347034e-20 -6.2000664e-20 9.578659e-20 -3.754063e-20 8.1376555e-20 4.6133792e-20 -2.6676171e-20
9.0188394e-20 4.369827e-21 5.2157483e-20 -2.1240176e-20 2.55532e-20 -8.128257e-20 -7.1519516e-20 2.539739e-20
-8.0189616e-20 -4.6008752e-20 -5.0588243e-20 -6.4157283e-21 5.388071e-20 -5.3547563e-20 7.370079e-20 1.6785902e-20
-9.1691336e-20 2.0261931e-20 2.7413557e-20 -9.114253e-20 -9.7520956e-20 -5.977235e-20 9.3242086e-20 3.2113946e-20
8.887252e-20 8.836671e-20 3.2448896e-20 -7.5574575e-20 -7.862377e-20 -2.0491739e-20 4.2331184e-20 -5.5276377e-20
-6.472412e-20 -4.7386612e-20 6.1570245e-20 5.0196606e-20 9.355448e-20 -7.436441e-20 -1.0643045e-20 2.986099e-20
3.4826217e-20 -7.931372e-20 3.9454807e-21 7.990284e-21 9.388709e-20 4.0775768e-20 2.0671349e-20 -7.1695615e-20

bias f4 [16]
00000000: 0396 c89e b837 419f b18a 9d9f 14ce f21f
00000010: 65d7 dc1f 6fa9 981e 9120 949f ba8c 781f
00000020: d1d4 839f e95c ed9f 0e7f 361f c18f 909c
00000030: 6d05 579f 2a99 399b 1ad9 3d1e cf2f ed9f
-2.1237867e-20 -4.091543e-20 -6.672153e-20 1.02831914e-19 9.3529965e-20 1.6163702e-20 -6.2734315e-20 5.263245e-20
-5.5832733e-20 -1.0052711e-19 3.8645096e-20 -9.56628e-22 -4.553251e-20 -1.5352331e-22 1.0050472e-20 -1.004525e-19

weight f4 [32, 16, 5, 5]
00000000: c1de 8b9e 269c 809d 9db1 3c9f 7444 dc1e
00000010: cf19 319f cd15 1f1f 5c29 569f d7ff 379f
00000020: 0ac7 5d9f 1a8a 8e9e 3d83 179e 9120 701f
00000030: 0b8c ca9d 85f2 0c9f 45dd 601f f398 3d1f
00000040: b1f5 d51e 5539 669f dd51 c39e 641d d99e
00000050: 80a0 b21e f0a0 571e 05a3 819e 1dc5 1d9f
00000060: 36d6 4c1e 229f 589f a499 779e 82af 101f
00000070: 8e03 0b1f 94d0 dd1e 243c 0f9f 197b 099e
00000080: 6161 649e 79ab 119e b45f 969d 15c8 231d
00000090: 89a0 391f ac0b 809d c319 9f9d 85df 0b1f
000000a0: d64a 841e a594 569f 63fc 3e1f c3f0 d01e
000000b0: 3081 211f 2f45 bc1e 5f26 361e 2dfb 5d9f
000000c0: aaef 119f bb94 661f c30c 991e 1855 859e
000000d0: 2e7b 141e 4ad8 301f 0e68 4d1f b195 851e
000000e0: 3260 de1e fce4 de9e a3a5 059d 0dc9 fc9e
000000f0: 127f 501f c52a 0b9e ecb2 e79e d2d5 a61e
00000100: c230 6e9f 1539 569e 52fe c31d 3901 601f
00000110: 1910 9a9e 1fa9 119f 621c af1e f66c 419e
00000120: efd7 041f f24c 831e d5fd f51e 48d4 439e
00000130: 4abd f81e 1af2 1f9f 5008 609e f9ac 9e9e
00000140: 6c9c fc9e 893f 509e 4ae6 171e ba43 ae9e
00000150: 8534 4b9e e5af 359d 055c d71e a2e2 659d
00000160: 57aa 189e 1bf1 5b9e d0ae 2d9f 39bb ad1e
00000170: 58be e11e 0a69 679e 71e2 df9e ee13 d81e
00000180: be2c 9f1e 5c35 599e 0251 329e 8817 3f9f
00000190: b6cb 559f 028b f89e 843b 9a1e c806 db1e
000001a0: 8a47 941e 569d f19e 8d8f 919e 9ca0 589f
000001b0: 4680 3a1f 9a19 b81e 4b49 341f d254 eb1e
000001c0: 278b 199f b909 ef9b ef7c 909e cd67 539f
000001d0: 8601 669f e341 d81e 3a58 041f 680f 381f
000001e0: 541b 949e f2e8 3c1f 0d7a 811d 1927 6b1f
000001f0: 68b4 a71e 9b15 8a9e 1d51 279d 58fd 111f
00000200: 04a2 369f 9a25 701f 9aa0 801e 19e3 e59d
00000210: 14c3 6d9f 4186 521f 7a4a d31e 35b0 391f
00000220: 7147 009f 33e1 229e 35f9 451f d561 709f
00000230: 96a0 e39d 9f8d 571f 4859 a21e 2e57 b21d
00000240: 20df b01e 7374 b39e 21cb 249d 4457 c09e
00000250: 4c29 c31e a3a0 3e1f 4e6e e79c f8fe de9e
00000260: 4c02 879e 38a4 291f acd7 ab9e fa58 1f1f
00000270: 7e02 549f 072c 3e9f 3b34 dd9e e68a 349d
00000280: 611a ea1e 61b4 8e9e a49d f71c 7b09 0d9f
00000290: 1bc6 fc1e 9e3d 309f 7811 0b1e 678c 1a9e
000002a0: c2fc 069f 4419 459e 8544 ba1d 9cca db1e
000002b0: a17b 461e 5624 131f 6e01 739f 91e4 f91c
000002c0: 1d80 591e f931 d21d b28d 609e 72c7 201e
000002d0: 07d4 079f d112 0e1f 1192 131e 4315 059f
000002e0: 558a dc9e e0af 299e 1fbd 5d1f c440 619e
000002f0: 6925 431e e043 371f a003 011f 0a5e 2c9d
00000300: c7ed 129e 38ec 4f9f b1af 859e cc64 569e
00000310: b488 5e9e 00b1 789e 9f25 6e1c 3563 3c9f
00000320: 0180 209f 09b5 489e 25e4 2b9f bfbb 0d1f
00000330: 2931 609f ff7e 499f 2ddd c41e 4ce2 cb1e
00000340: 121e 471f 7bac cf9e d3ff 0e9f 64e2 0c9e
00000350: 19b8 e31e 610f 159f 3c99 291f a725 f69e
00000360: 32b4 609f 39ee 7c9e 3173 c11d 3e91 fb1c
00000370: 3ee3 0b1e bb71 481e 6033 dc9e 40be 289f
00000380: b352 b51e 8e57 611f 9b8c 131f 6519 d51e
00000390: 870d 4d9e aa36 721f 7de8 701e 3076 0c1f
000003a0: 343d 439e 3b0f 1a9f e8f8 731e d142 309f
000003b0: af48 4e1f c43f f59e 243c 0f1e 895a 3e1f
000003c0: e98e 5b9f f760 769e 2584 2a9f aecf 479f
000003d0: db9e fb9e 79bf ec1e 477b ff1d 25df 721c
000003e0: 8041 009f 2437 8a1e 6c6f e99e 41b2 939d
000003f0: 5593 949e 0d79 b91e b226 571f 71f1 0b1f
-1.4809326e-20 -3.404277e-21 -3.9957467e-20 2.3321718e-20 -3.7502556e-20 3.3687593e-20 -4.5350474e-20 -3.8963383e-20
-4.696321e-20 -1.5091952e-20 -8.021013e-21 5.0848915e-20 -5.3613756e-21 -2.984676e-20 4.7616875e-20 4.0148823e-20
2.2653868e-20 -4.875182e-20 -2.0680286e-20 -2.2987924e-20 1.8912864e-20 1.1415286e-20 -1.372583e-20 -3.340909e-20
1.0843968e-20 -4.587141e-20 -1.3107843e-20 3.0638363e-20 2.9437335e-20 2.3485551e-20 -3.0331175e-20 -7.278176e-21
-1.2090357e-20 -7.711696e-21 -3.9803624e-21 2.167631e-21 3.9308065e-20 -3.3893386e-21 -4.2113587e-21 2.9619286e-20
1.4006995e-20 -4.543922e-20 4.0442834e-20 2.2122433e-20 3.4199938e-20 1.9933888e-20 9.642935e-21 -4.7006338e-20
-3.090319e-20 4.882742e-20 1.6204783e-20 -1.4117117e-20 7.860528e-21 3.744836e-20 4.349651e-20 1.4143834e-20
2.354495e-20 -2.359987e-20 -1.7688036e-21 -2.676469e-20 4.4150823e-20 -7.367443e-21 -2.4532077e-20 1.7664368e-20
-5.0438792e-20 -1.134087e-20 5.187903e-21 4.7434856e-20 -1.6312042e-20 -3.0844838e-20 1.8540585e-20 -1.02398675e-20
2.8130703e-20 1.3901988e-20 2.6045366e-20 -1.0367113e-20 2.633631e-20 -3.386982e-20 -1.186018e-20 -1.680044e-20
-2.6746232e-20 -1.1024567e-20 8.041496e-21 -1.8450978e-20 -1.0757591e-20 -2.4046086e-21 2.2802069e-20 -3.0425064e-21
-8.0820385e-21 -1.1643623e-20 -3.6778776e-20 1.8394521e-20 2.3901526e-20 -1.225076e-20 -2.3704697e-20 2.2878132e-20
1.6853285e-20 -1.1498919e-20 -9.4399936e-21 -4.0465288e-20 -4.527301e-20 -2.6315514e-20 1.633e-20 2.3190332e-20
1.5699697e-20 -2.558194e-20 -1.5411843e-20 -4.5872632e-20 3.9493137e-20 1.9492346e-20 3.817711e-20 2.4916674e-20
-3.2514114e-20 -3.9545516e-22 -1.5298264e-20 -4.476685e-20 -4.8705655e-20 2.289714e-20 2.8025067e-20 3.897626e-20
-1.5681412e-20 4.0003236e-20 3.4272213e-21 4.9795526e-20 1.7756427e-20 -1.4620254e-20 -2.21442e-21 3.0914505e-20
-3.8674015e-20 5.085308e-20 1.361895e-20 -6.085061e-21 -5.0348067e-20 4.4580282e-20 2.2371297e-20 3.932103e-20
-2.716415e-20 -8.622779e-21 4.1922512e-20 -5.09029e-20 -6.025244e-21 4.5645167e-20 1.7189343e-20 4.720635e-21
1.8727007e-20 -1.9000524e-20 -2.1810234e-21 -2.0364883e-20 2.0663508e-20 4.036694e-20 -1.5314811e-21 -2.3610617e-20
-1.4294631e-20 3.592298e-20 -1.8194529e-20 3.374316e-20 -4.4894808e-20 -4.0270484e-20 -2.3420887e-20 -2.389461e-21
2.4786624e-20 -1.5109438e-20 1.6385838e-21 -2.9865753e-20 2.6763472e-20 -3.7320418e-20 7.362211e-21 -8.181727e-21
-2.858468e-20 -1.0434318e-20 4.9304638e-21 2.3271324e-20 1.05075986e-20 3.1158517e-20 -5.1458434e-20 1.6536521e-21
1.15143776e-20 5.5638208e-21 -1.1887763e-20 8.511574e-21 -2.8762747e-20 3.0085234e-20 7.812321e-21 -2.8181433e-20
-2.3350619e-20 -8.983156e-21 4.6955008e-20 -1.1924794e-20 1.033095e-20 3.8807902e-20 2.731981e-20 -2.2812628e-21
-7.778347e-21 -4.402935e-20 -1.4154587e-20 -1.134991e-20 -1.1780852e-20 -1.31656134e-20 7.879622e-22 -3.989261e-20
-3.39872e-20 -1.0625349e-20 -3.6399375e-20 3.001321e-20 -4.747451e-20 -4.2668454e-20 2.0843783e-20 2.1587055e-20
4.2164763e-20 -2.1988314e-20 -3.0281282e-20 -7.458355e-21 2.4110701e-20 -3.15647e-20 3.5913895e-20 -2.6061836e-20
-4.75829e-20 -1.3390032e-20 5.120578e-21 1.6647331e-21 7.405591e-21 1.0611431e-20 -2.3314654e-20 -3.5732755e-20
1.9198324e-20 4.7718027e-20 3.1244767e-20 2.2562755e-20 -1.0855407e-20 5.129071e-20 1.2753572e-20 2.9743916e-20
-1.03358706e-20 -3.2623367e-20 1.29157855e-20 -3.732472e-20 4.368232e-20 -2.5966757e-20 7.582794e-21 4.0308954e-20
-4.6493266e-20 -1.30431834e-20 -3.6108208e-20 -4.2311678e-20 -2.664136e-20 2.5066663e-20 6.7625404e-21 8.035949e-22
-2.7159235e-20 1.4634124e-20 -2.4715918e-20 -3.9094886e-21 -1.5731045e-20 1.9637702e-20 4.556003e-20 2.963411e-20

bias f4 [32]
00000000: 16c2 1d1a 1bc6 971e 5463 159f 0311 491f
00000010: 59e4 dd9e 06f9 4b9e 771c 6b9f bbee d21e
00000020: 62d3 4a1f 94ba 7a9e cb9f 3f9f a316 091f
00000030: ff6d eb9e 12eb 4c1f 706c 1d9f 7713 541e
00000040: 522e da9e 1c91 a49e c9f6 939e 9c5e 659f
00000050: ab2e 209f e257 d09e edea 0d9f e3c7 2d1f
00000060: 0449 1c9f b76b 2c9f ad35 811e 5350 489f
00000070: ef4d 379f 9445 131f a726 e39d 5103 589f
3.262362e-23 1.6069681e-20 -3.163414e-20 4.2577477e-20 -2.3493728e-20 -1.0798227e-20 -4.978673e-20 2.2333351e-20
4.2950016e-20 -1.3273473e-20 -4.0578e-20 2.9029603e-20 -2.4927086e-20 4.3393126e-20 -3.333574e-20 1.1227212e-20
-2.3100805e-20 -1.7424191e-20 -1.5666298e-20 -4.8570895e-20 -3.391992e-20 -2.2059204e-20 -3.0052237e-20 3.6799517e-20
-3.3094682e-20 -3.6511516e-20 1.3680606e-20 -4.241809e-20 -3.8816222e-20 3.1186014e-20 -6.0126365e-21 -4.5742522e-20

weight f4 [32, 32, 5, 5]
00000000: 5ac4 c39e e83d d19d 7c8d f11d 83e4 541d
00000010: e0f1 cb9d f806 e21e 52dd 061e 6b3d 489e
00000020: 8d31 251f 45d5 571e 42bb 139c 2b06 961e
00000030: 35e9 919e e7b1 559e 9cce 0b9f 5447 e91d
00000040: 9cf6 ca1c 2ea8 149e b4f2 8c1d 6489 ca9e
00000050: e934 4b9e d7b4 091f 918f db9e 030e 101e
00000060: 63f9 c99d 7d34 9a1e bdc1 d69d 7fad 351e
00000070: f540 fe9e d040 771e 4774 569e e380 fa1e
00000080: 4123 539e 5fa4 0f1e 6d5e d49e 7dea aa9e
00000090: e4fc 1b1f b23a 199f 9a05 1f9f 4f0d 321e
000000a0: 02fb aa9e f49a ff9e 8128 031f 4ff5 169f
000000b0: 2501 b01e bf19 2b1f 7c63 091f 18b9 029f
000000c0: a308 889e 5433 419e 92d2 0d9f 8197 1b9f
000000d0: d5d4 229f 5a1f e81e 0617 431c c249 e89e
000000e0: 6dcf f31e 49bd 1d9e 2674 1d1e 43ec aa9e
000000f0: 2ed0 a99e cc80 941e 9a78 259f 366a 1c1e
00000100: d09a aa1e 8e45 ab9e 317e 579d 27b0 659e
00000110: 47ea 0b1f 7cae f79e 1d69 b41e 9515 1e1f
00000120: f854 261f 9ac3 cf9e 4a14 fc9e 2beb 1b9d
00000130: 2502 119e 813b da1e ad3a b91e 7a67 ac1d
00000140: f804 cd1c c2f3 f59e 9117 1d1f bb73 119f
00000150: a068 1e1f 9a46 a79e f4e7 869e bfed fb9d
00000160: 24d4 d31e 82a3 9e1e 58ef fd1e aad6 0d9f
00000170: 1709 161e a42b a51e ede8 bc1e da4f 2b9f
00000180: ad6f 209f 5bef e89d 0bd1 149f 48cb df9e
00000190: e653 1e1e 7550 df1e 9536 239f 4502 171f
000001a0: e277 909d 3481 f61e c042 fb9d 8200 1f1f
000001b0: eaed 1d1f 70b9 4f1e 4b2a 671c 5ef7 1f1d
000001c0: c3df ec1d 4e59 459e c2be a49e 5267 121c
000001d0: e31a 089e 74f4 e29e fe79 039f af67 fa9e
000001e0: 47ca a79e 6f8a 279f a8e1 c49e ba16 221e
000001f0: b1cc b69e 5176 091f 7b50 fc1e acea 8d9e
00000200: 6c48 f79d f672 221f dced 3e1d c1cf 2a1e
00000210: 6241 861e 204c 121f abe4 a49d 4ea1 c01e
00000220: 022e 219f 5aa4 349d 2188 b19e 6c03 a01e
00000230: a2a5 669e 97ff 2e9e 2089 aa1e 49a6 881d
00000240: 0060 b01e 789b d41d 08cb 8a9c b926 061f
00000250: facd e01e 8f1d 3a1d 2985 231f c355 9f1e
00000260: 513d b39e 14f0 d61d 824e 809d 2721 be1d
00000270: 428b e29e 3995 2b9f baeb f19e a835 549e
00000280: 09f6 a51e 1a7e 0b9f 6ee9 249e 23ad da1e
00000290: b591 4b9e 7459 f49e a2f9 0f1d 0ed7 d59e
000002a0: f969 061f 363a 369d 9a87 281f a52c ef9c
000002b0: b579 089d 947f bd1e 7985 1a9f d308 989d
000002c0: ce8a 149f 3531 2a9f 0595 161f 4215 469e
000002d0: 895a 081d 3d52 d49d 0646 a91d 87c5 199e
000002e0: f5c5 089d bbb4 089f d1c9 289f 0a13 c71e
000002f0: 76fb 431e aed5 921e fe70 031f c4d3 e79e
00000300: 01e1 f19e ed7a d39e 9684 2c1e 0d64 be1e
00000310: 52b7 7c9e eec3 051e 31e2 c29e 7ae5 f79e
00000320: f74e ed1e 2c1c ce9e c803 4a1c c789 1a1f
00000330: 3de9 8f1e 9f7c 669e 0c8d 059f 6bd4 bb9e
00000340: 2dbd 7b1d 6de6 219f dcff e19e 6da5 699e
00000350: a14f 471e bf78 b31c 0d2a 129f 16b8 191e
00000360: 8f2a 1d1f 2f06 2c9f 6897 491e 443f ba1e
00000370: aff2 fa1c fd9d 829e 06a7 4d9e 5285 881e
00000380: a93b 9b9d a063 d79e 55d1 839d b4f3 109f
00000390: 0065 d39e be43 a99d 361a d51d 047e c41d
000003a0: c6ba 031f 5b7c 921e 60b3 689e 331c 0a1f
000003b0: 8080 2a1d d273 6f1c 3da9 cb9d a3a3 de1e
000003c0: fcaa 821e f2fd 021e 27ef 1d9f 7a1a 781e
000003d0: 6eca a09e 897c 081e 1772 6e9e ad05 ba9e
000003e0: 3b3a ab9d 35b6 291f 5574 661e 750e b51c
000003f0: 1a24 2b1f 5b05 291f fe34 1a9f 7e95 f39e
-2.0727637e-20 -5.538585e-21 6.393846e-21 2.8176104e-21 -5.3983745e-21 2.3931563e-20 7.139669e-21 -1.0600613e-20
3.4981097e-20 1.1426108e-20 -4.8880245e-22 1.5884419e-20 -1.5448924e-20 -1.13129155e-20 -2.9605298e-20 6.174834e-21
1.3430986e-21 -7.8698335e-21 3.730864e-21 -2.1444405e-20 -1.0757672e-20 2.9160466e-20 -2.3246905e-20 7.626194e-21
-5.3462117e-21 1.6327093e-20 -5.684565e-21 9.617938e-21 -2.6920162e-20 1.3089474e-20 -1.1353111e-20 2.6523086e-20
-1.1177537e-20 7.604348e-21 -2.2485427e-20 -1.8096432e-20 3.3031713e-20 -3.2447562e-20 -3.3674193e-20 9.425994e-21
-1.8103265e-20 -2.7063262e-20 2.7773833e-20 -3.196665e-20 1.8635198e-20 3.6231955e-20 2.909317e-20 -2.7681677e-20
-1.4403132e-20 -1.0227949e-20 -3.003209e-20 -3.2947848e-20 -3.4480885e-20 2.4576922e-20 6.4549845e-22 -2.4594461e-20
2.5814415e-20 -8.350654e-21 8.33553e-21 -1.8097166e-20 -1.7979672e-20 1.5723379e-20 -3.5039868e-20 8.280535e-21
1.8063479e-20 -1.8134096e-20 -2.8520252e-21 -1.21595865e-20 2.9628185e-20 -2.6224307e-20 1.9101715e-20 3.3475654e-20
3.5222152e-20 -2.1997876e-20 -2.668993e-20 -2.0635658e-21 -7.6766796e-21 2.3106258e-20 1.9611905e-20 4.5635013e-21
1.3567046e-21 -2.60412e-20 3.3265537e-20 -3.0800674e-20 3.3544345e-20 -1.7711013e-20 -1.4283735e-20 -6.668497e-21
2.2428233e-20 1.6796526e-20 2.6886407e-20 -3.0035477e-20 7.942814e-21 1.7488104e-20 2.000161e-20 -3.627671e-20
-3.3973694e-20 -6.1657376e-21 -3.1513135e-20 -2.3695119e-20 8.3818e-21 2.364432e-20 -3.4561742e-20 3.197737e-20
-3.824044e-21 2.60997e-20 -6.6508165e-21 3.366998e-20 3.344284e-20 1.0996836e-20 7.648615e-22 2.117136e-21
6.2700044e-21 -1.0447561e-20 -1.7443071e-20 4.8440886e-22 -7.20534e-21 -2.4029784e-20 -2.784124e-20 -2.6512662e-20
-1.7765473e-20 -3.5478135e-20 -2.0845636e-20 8.580908e-21 -1.9354658e-20 2.9108747e-20 2.6714824e-20 -1.5026014e-20
-6.545524e-21 3.4399928e-20 2.5269261e-21 9.0426876e-21 1.4214844e-20 3.0979672e-20 -4.3646876e-21 2.0395505e-20
-3.4131133e-20 -2.390777e-21 -1.8796906e-20 1.6942074e-20 -1.2210351e-20 -9.264338e-21 1.8056164e-20 3.6170835e-21
1.867443e-20 5.6276684e-21 -9.184556e-22 2.8407634e-20 2.3802112e-20 2.4632176e-21 3.462674e-20 1.687025e-20
-1.8977722e-20 5.6893563e-21 -3.3962493e-21 5.032686e-21 -2.3986276e-20 -3.6334093e-20 -2.5614362e-20 -1.1234282e-20
1.7571812e-20 -2.9538704e-20 -8.73036e-21 2.3153255e-20 -1.0776862e-20 -2.5871502e-20 1.905495e-21 -2.2641197e-20
2.8463262e-20 -2.4117594e-21 3.568755e-20 -1.5827234e-21 -1.8062371e-21 2.0063918e-20 -3.2721174e-20 -4.024319e-21
-3.1455036e-20 -3.6039603e-20 3.1887e-20 -1.0486429e-20 1.8046256e-21 -5.6200965e-21 4.480633e-21 -8.1406e-21
-1.8101792e-21 -2.8948617e-20 -3.5742322e-20 2.1077819e-20 1.0375215e-20 1.5546727e-20 2.7833794e-20 -2.454566e-20
-2.5609927e-20 -2.2391335e-20 9.133022e-21 2.0158413e-20 -1.3378679e-20 7.081479e-21 -2.06341e-20 -2.6247052e-20
2.512601e-20 -2.182275e-20 6.684108e-22 3.2724735e-20 1.5237179e-20 -1.220187e-20 -2.8280517e-20 -1.9887249e-20
3.3317375e-21 -3.428368e-20 -2.3928623e-20 -1.23691265e-20 1.0551439e-20 1.1876439e-21 -3.0951486e-20 8.137821e-21
3.3281247e-20 -3.6427532e-20 1.06721615e-20 1.9719682e-20 1.6606344e-21 -1.3829628e-20 -1.0887149e-20 1.44547e-20
-4.1089846e-21 -2.2805214e-20 -3.4891856e-21 -3.0694773e-20 -2.2382267e-20 -4.480397e-21 5.6407732e-21 5.2011065e-21
2.7894824e-20 1.5509784e-20 -1.2319072e-20 2.9245963e-20 2.2565746e-21 7.922816e-22 -5.390864e-21 2.3572843e-20
1.3835003e-20 6.934657e-21 -3.3443865e-20 1.3134486e-20 -1.7024382e-20 7.225533e-21 -1.2623208e-20 -1.9695863e-20
-4.532353e-21 3.593786e-20 1.22001555e-20 1.1981312e-21 3.624052e-20 3.5791572e-20 -3.2654603e-20 -2.5790454e-20

bias f4 [32]
00000000: 8de3 1f1f 6579 5b9e 52e2 699d 289f 619e
00000010: 49fd 6e1e 1d8d e71d 6c13 281f 8ff7 de9e
00000020: f7aa 1a9f 243b 129f 6d72 1b1e bc27 771e
00000030: e4a1 ab9e a544 8f9d 9cd1 241e 5ba4 a21d
00000040: 2f08 211d 5166 f71e ae1a e11d a4a9 369e
00000050: c09e 101f 1799 9f1c 8832 9f1e 39cb 109f
00000060: 89be b79d 7f7c 441d 5c57 d19e df40 0a9e
00000070: 6937 1a9f 5bed 199f 9e7c ff1e e160 dd9e
3.3857785e-20 -1.1618867e-20 -3.0954298e-21 -1.19443136e-20 1.2651993e-20 6.12911e-21 3.559145e-20 -2.3607552e-20
-3.2752187e-20 -3.0965623e-20 8.229294e-21 1.3084288e-20 -1.8172286e-20 -3.792276e-21 8.725434e-21 4.3050983e-21
2.1312403e-21 2.619446e-20 5.958459e-21 -9.670081e-21 3.06245e-20 1.056131e-21 1.6855679e-20 -3.0661288e-20
-4.8636705e-21 2.6004747e-21 -2.2164867e-20 -7.319074e-21 -3.2656603e-20 -3.2595346e-20 2.7050716e-20 -2.3439353e-20

weight f4 [32, 32, 5, 5]
00000000: 437e 891e 6514 f61e 5289 a19e 0f30 ef9e
00000010: c874 8a1d 8f1b 121f 23a9 1b1f 1627 5a9e
00000020: f76c 1e9f a6d5 e21d a617 0a1f 4fca f49e
00000030: b6be 9c9e c305 9d9d 582d 2b9f 0c4d 241f
00000040: cf82 159f aa8c 4e1e f793 d21e aa9f 2f1d
00000050: a2f6 149f b266 a71e 8506 bc9e b0b0 971e
00000060: 2892 911d db8c c11d 0913 de9e c799 871e
00000070: d215 5d9e 2fa4 3b1e 5643 171f c026 1c1f
00000080: a6ca 2b1f d5a6 471d 84e2 111f 60aa 2d9e
00000090: 223f 9a1e 2d1c 181f 58e6 959d 71ce fc9d
000000a0: 27ea 4c9e d3d9 ae9e 16b7 141f 55ed 061f
000000b0: 19cf 0c9f 2608 009f ebeb 8e9e b6b4 141e
000000c0: 4ecb e39d 0d4d 1d9f 1957 d41e f3fc 209f
000000d0: ec0d 4c1e 3e1f b41c 76ae 921e 580b b41e
000000e0: 6504 fd1e e288 be9e ee12 0f1e 76fd 919d
000000f0: 9016 1e1f 15e2 d49e 7caf 1a9f 87a1 4f1e
00000100: 35a7 201e 2c32 849e de83 fe1e 4315 099f
00000110: b24c be9e 8948 9f1e 364f 4b1e 6e1b e29e
00000120: 0a52 249d 6c2b 081f c895 c11e 70e7 469e
00000130: 2686 241f 0ba9 159e c2b2 081f 2724 c89d
00000140: fdea 891e 7372 371e eaac a89e d719 fd9e
00000150: 0f4a ef9d b645 ad9e d86c 2b9f a795 839e
00000160: e797 c31e 39fd 219e c1ef 099f ba7e 239f
00000170: 1737 021f 8f5b 869e 6557 6a9e 64c5 c09e
00000180: 6312 9e9d 8ad3 0a9f 542f db1e 98cb 1b9f
00000190: 9ab1 c71e b5f0 899c 9032 1e9e a1f1 4c9e
000001a0: 255f 0e1f 1919 2c1f f845 221f b129 0c9f
000001b0: 18e6 c79e a5f5 e69d 5d8f fc1e f6f7 cf1e
000001c0: 7ec1 151d f801 fa1e d8b6 c09e 4095 ba1e
000001d0: 880f a31d 95d7 1c9f 20c5 f61e 368c 241f
000001e0: 26ac 209e d45a b31e d4d9 569d e34f e39e
000001f0: 7e8d 599e a89c 941e 91a0 789d fe13 231f
00000200: f622 121e b1c2 859e 5a7f 089d df1c 8e9e
00000210: 18a7 a39c 63bd 261f 1149 849e b56d c39e
00000220: 5618 6b1e d3f3 161f cdca 789e b004 461e
00000230: a2a1 229f ce38 1c1f 4fc4 0e1f f9da 5a1e
00000240: 21cd 279e e7e5 e69d 2cf4 3a1c 0c20 0e9f
00000250: e254 2d1e 365e e81e a6c2 c51e 4a39 701e
00000260: f9aa 171f 5bc9 9e1e 6dbf 521c 8791 241f
00000270: 1356 3a1e 2c36 fe1d 6f61 af9e 3698 f19d
00000280: ad7c 9f1e 7055 481b af8f 009f e07c 1c9e
00000290: 4172 f91d 88bc f11e 854b d91d 810a a19e
000002a0: 77d5 ec9e 7e71 391e 9d96 d49e 67be 621e
000002b0: 2265 061f 9848 0f1f a3ba 969e 8850 ac9e
000002c0: b899 bc1d 16ff ed1e 406a 591e 740c 0e1f
000002d0: 8ab8 289f c6fb 131f 2635 4d9c 7659 259f
000002e0: fa61 691e 8e12 969d bac4 641e d802 221f
000002f0: a35c 049f 68e2 0e9f d4b3 759d 3571 e19e
00000300: 16ac 2b9f c844 a61e 2014 041d 5614 1e9f
00000310: edc7 3b1d 514a 239f 0eb3 089f 468b ea9e
00000320: eae6 749e 07bb d61d d478 199f 0eb3 b51e
00000330: 1c7d b39d 9f48 1c9f 6e25 271f b0f7 099f
00000340: 8ecc d69e e053 f81c 021d 9d1e 2e69 1f9f
00000350: 1c71 619e 2223 ea1e a500 fe9e a085 839d
00000360: f849 281f fe96 251f 1142 a51e 5139 059f
00000370: 4f6e f89e 6aa4 671e db5d 501e ba10 999d
00000380: 300e 931d 3f48 8e9e 5a42 af9d b782 c81e
00000390: 4126 ba1e c03d 231f 4156 061f fc00 8a9e
000003a0: 2594 541e 62b2 bf9e 28d5 3f1e 2ebc 691e
000003b0: 741c 929e 56a7 021e da42 ec1e d0c9 c01d
000003c0: 6840 fe9e 8084 041f a60e 0f1f a553 949e
000003d0: f5f5 139f 86b5 769e 79d7 529e fbeb 8a1e
000003e0: 10c4 699d e4dc 521e 239e e69e 94a8 bc9e
000003f0: 13e9 d51e c311 ec1e b83b 149d 21d8 619e
1.455766e-20 2.6054698e-20 -1.7103332e-20 -2.5324986e-20 3.6649045e-21 3.09395e-20 3.2962433e-20 -1.1548907e-20
-3.3547935e-20 6.004261e-21 2.9242198e-20 -2.5918178e-20 -1.6596019e-20 -4.156351e-21 -3.6248166e-20 3.4792083e-20
-3.166018e-20 1.0934638e-20 2.2295812e-20 2.3243602e-21 -3.154423e-20 1.7724287e-20 -1.990797e-20 1.6060823e-20
3.8532302e-21 5.1232316e-21 -2.3513037e-20 1.4357282e-20 -1.1704155e-20 9.93365e-21 3.2031193e-20 3.3066338e-20
3.6378285e-20 2.642368e-21 3.0892314e-20 -9.1937765e-21 1.6331495e-20 3.221056e-20 -3.967814e-21 -6.69173e-21
-1.0848092e-20 -1.8513057e-20 3.1491664e-20 2.857192e-20 -2.981746e-20 -2.7111795e-20 -1.5132408e-20 7.872425e-21
-6.029661e-21 -3.3309778e-20 2.2482396e-20 -3.4090553e-20 1.0802549e-20 1.1919477e-21 1.5530507e-20 1.9062933e-20
2.6789234e-20 -2.0173646e-20 7.5742715e-21 -3.8643253e-21 3.3476465e-20 -2.2539878e-20 -3.2755926e-20 1.0991892e-20
8.504907e-21 -1.3996794e-20 2.6947835e-20 -2.9028466e-20 -2.0148753e-20 1.686478e-20 1.0763111e-20 -2.3940025e-20
-2.1747632e-21 2.8835038e-20 2.0496618e-20 -1.0529893e-20 3.4839316e-20 -7.9229516e-21 2.8946985e-20 -5.297694e-21
1.4602628e-20 9.711607e-21 -1.7859207e-20 -2.6798104e-20 -6.333935e-21 -1.834592e-20 -3.6300692e-20 -1.393206e-20
2.0709253e-20 -8.575634e-21 -2.9209198e-20 -3.4621418e-20 2.757414e-20 -1.422567e-20 -1.240593e-20 -2.041043e-20
-4.1841263e-21 -2.9397618e-20 2.3207101e-20 -3.2990936e-20 2.1143399e-20 -9.128121e-22 -8.3749064e-21 -1.0849638e-20
3.014837e-20 3.6443177e-20 3.436271e-20 -2.968064e-20 -2.1165109e-20 -6.1134484e-21 2.6740832e-20 2.2019532e-20
1.9820019e-21 2.6470594e-20 -2.0404413e-20 1.9755244e-20 4.31618e-21 -3.321261e-20 2.6127792e-20 3.484433e-20
-8.505929e-21 1.8989928e-20 -2.8435279e-21 -2.40676e-20 -1.1517144e-20 1.5734901e-20 -3.2905538e-21 3.453313e-20
7.736405e-21 -1.4162445e-20 -1.806529e-21 -1.5046776e-20 -1.0829628e-21 3.5308524e-20 -1.4006263e-20 -2.0691802e-20
1.2445829e-20 3.1965422e-20 -1.3170949e-20 1.0483002e-20 -3.4438534e-20 3.3081273e-20 3.0232052e-20 1.1586106e-20
-8.883326e-21 -6.1118207e-21 6.185782e-22 -3.0096178e-20 9.176097e-21 2.460292e-20 2.0938691e-20 1.2717341e-20
3.211692e-20 1.681218e-20 6.9730583e-22 3.4848728e-20 9.864558e-21 6.7289253e-21 -1.8569143e-20 -6.394955e-21
1.6886345e-20 1.6571219e-22 -2.7223907e-20 -8.284395e-21 6.6027887e-21 2.5594842e-20 5.7517507e-21 -1.7050882e-20
-2.5075759e-20 9.817288e-21 -2.2508665e-20 1.2003715e-20 2.845926e-20 3.0341476e-20 -1.5959059e-20 -1.8244515e-20
4.9922127e-21 2.5198852e-20 1.1509856e-20 3.007997e-20 -3.572803e-20 3.1336723e-20 -6.7897503e-22 -3.501411e-20
1.2355178e-20 -3.9723854e-21 1.2110902e-20 3.4307187e-20 -2.8028715e-20 -3.025695e-20 -3.2518449e-21 -2.3869623e-20
-3.6353005e-20 1.7604381e-20 1.7480459e-21 -3.3474623e-20 2.4852603e-21 -3.4578066e-20 -2.894723e-20 -2.4833316e-20
-1.2965004e-20 5.683871e-21 -3.2498957e-20 1.9238176e-20 -4.7510266e-21 -3.3094356e-20 3.5394587e-20 -2.921576e-20
-2.2742733e-20 1.6432945e-21 1.6635019e-20 -3.3756562e-20 -1.1934791e-20 2.4790244e-20 -2.6893563e-20 -3.4813576e-21
3.563657e-20 3.5065007e-20 1.7497379e-20 -2.8211257e-20 -2.6303644e-20 1.2263038e-20 1.1030837e-20 -4.0516058e-21
3.8925246e-21 -1.5064715e-20 -4.639072e-21 2.1229886e-20 1.9709337e-20 3.456767e-20 2.844695e-20 -1.4611725e-20
1.1253822e-20 -2.0296689e-20 1.01555355e-20 1.2373832e-20 -1.547012e-20 6.916747e-21 2.5015121e-20 5.1030646e-21
-2.6919934e-20 2.806169e-20 3.0293545e-20 -1.5704704e-20 -3.1331912e-20 -1.306067e-20 -1.1161866e-20 1.4708918e-20
-3.0938655e-21 1.11629865e-20 -2.4417601e-20 -1.9974997e-20 2.264865e-20 2.4994818e-20 -1.961851e-21 -1.1956095e-20

bias f4 [32]
00000000: a468 819e 2fde 4a9e 1515 7f1e 15e6 dd9e
00000010: 7339 239d 41ed 231e 77ef ed9d d660 be9e
00000020: 6cab 2a1f 6ae1 001e d4a0 5a1e eb1d eb1e
00000030: 8483 139f 4250 131f 4aa9 ec9e f08e e29e
00000040: 16bf 9e1e 0c4c 251d d932 eb1e 1a5e 161e
00000050: bb7f 0d1d 5919 771e 3958 e01e f117 c09e
00000060: 4a60 539e e873 eb9e 4144 d49e aa08 279e
00000070: 4894 f99d 9f27 3c1d aa1d 261f 32d6 231f
-1.3701685e-20 -1.07397374e-20 1.3503947e-20 -2.3494445e-20 -2.160257e-21 8.678211e-21 -6.298098e-21 -2.0157083e-20
3.6140697e-20 6.822878e-21 1.1574082e-20 2.4893967e-20 -3.1237248e-20 3.119485e-20 -2.5057488e-20 -2.3987798e-20
1.6807932e-20 2.1876883e-21 2.4902623e-20 7.960394e-21 1.872723e-21 1.3081313e-20 2.375341e-20 -2.0338693e-20
-1.1190159e-20 -2.492953e-20 -2.2474602e-20 -8.842698e-21 -6.606307e-21 2.4902076e-21 3.5176405e-20 3.469377e-20

weight f4 [32, 32, 5, 5]
00000000: 4e68 2a9e d4ff 7e9e 0e84 101f 870f 871e
00000010: a1d5 e41e a104 ec1e 2123 699e 4d23 279f
00000020: 54df 151f e4dc d21e 965c 019f bf00 f19e
00000030: 6d8f 991e 59a7 af9e 9ccd ea1e 1d0b 199f
00000040: 52b1 c51e 7284 1a1f 4372 359e 982b 231f
00000050: e5c3 619e ec24 191f 7a4e 229f 4620 869c
00000060: bdfb 221f 7c9c 869e 74c8 789e 9b91 551e
00000070: bf0c b39e 33f4 499d 9bbf e01e 80c0 091e
00000080: 2ba7 851d e952 f69e 760a 121f b899 959e
00000090: 97de e31d 46dc c91e 2fcf 039e e456 c39e
000000a0: 11d0 3d1e 81b7 039f bc35 071f 38a8 bb1e
000000b0: f11d ee9e 6c93 ba9d 809d 141f 3e55 f51e
000000c0: 05d6 e51e 8b3c e99e 3333 221e 7693 209f
000000d0: 593e c91e 0578 669e 5dce 4b9e f65c c29e
000000e0: d293 de9e 03de 231f 78ad 211f a7fa a59e
000000f0: 88cf 2b9d 6315 d19e d746 189f 02f6 8e1e
00000100: eea8 241e a075 f01e 3792 e71e c302 ae9e
00000110: 8e87 e91e 9b3d f11e d3a6 ad9e 177a a99e
00000120: 73a5 1a9f 4860 ac1d 8fcd c11d 9ef8 8d9e
00000130: f2c1 b09d cb5f d29e 368d 131f 0c4c 609e
00000140: 6689 861e 1f77 8f9e 6c9e 1a1d 139d 259f
00000150: 58ff 031f 756e 149f cffa 0b9e 9e8a 0a9d
00000160: f8be ca9e 38b3 081f 34a4 9a1d 70f9 2d1c
00000170: 3c16 ba1d 5d6e d49e 94ed 0d1f 23b2 5c1e
00000180: 25d3 b81e c58a 349d 9745 bf9e d73c 279f
00000190: fcb9 201f 80e0 1e1f 9f9e f29e 35fb e89d
000001a0: 4bdc f89e 0f82 cb9e 0f5c c41e dd45 0b1d
000001b0: 525b 669e bae7 f29e 7b63 c91e 9d5a aa9e
000001c0: 830c 269f d96b 031f 5769 0c9f bcae 9a9e
000001d0: d444 e09e 3e04 a41e e299 279f 48d8 249f
000001e0: cac9 201f db90 0b1f b22e 061e bdc4 239f
000001f0: f731 969d 69b6 041f 8460 031f a735 881d
00000200: efac 9a1e 96e3 801e 1404 509c 3c06 c61e
00000210: 3a7f 299e 1724 dd1e 700e d61e a965 179f
00000220: 1387 2a1f 4554 ab1d d23b c61e 7d1b 0f1f
00000230: d230 d51e 33d6 711b 7c34 051f 2a92 829e
00000240: c067 d89c 2bab e09e 936b b39d 1776 b59d
00000250: d902 859c fe26 161f f743 869e c030 271f
00000260: c302 039f 4fd4 ef1e 6f5c 049e 3d02 039e
00000270: c5da d61c d843 911e b7b7 1e9e 39ab ed9e
00000280: 0659 181f 4b02 7e1e 6e85 ff1d 4a06 a99e
00000290: 6b5f 311d b05c 3b1e 13b9 ad1d cac7 121f
000002a0: cb9f fc1e b953 ae9d 2d0e bf9e e6e7 051f
000002b0: d96d d49d 0aba 129f 27f0 111e 50aa 4e1c
000002c0: aaae d21e 1c0b a71e 8140 8d9e 613d 061e
000002d0: b81e cf1e 4cc5 831e ee92 861d dcf1 249d
000002e0: c68d 999e dd67 f29e 2486 aa9d 692d 911e
000002f0: 18a1 a71c b850 001f d94a 361e 5e76 b51e
00000300: af28 a29e 1c41 219f 88ca c19e f6c8 2e1d
00000310: 30ef 6c9e c2c7 2d1d d351 1e9f 2965 7f1c
00000320: fcab e69e 6438 489e e042 841e 7c96 751e
00000330: bed7 9a1e d4a6 0b9f e92f 059f 0173 e11d
00000340: bed4 ff1e 441f 1a1e 199d ed1e 4426 091f
00000350: 9d17 9a1e e384 811e 7f72 e39e 8485 131f
00000360: a0e6 0a9e 8ff8 a99e b30b ee1e f736 931e
00000370: 024d 8a1d 7cdf 729e 38e8 949e 29d9 309e
00000380: 9cca f11e fe85 1b9e 54c3 eb1e b1ab 919e
00000390: 3615 c29e 9a0c 7f9e 897b 919e 1fc5 d49d
000003a0: 3d79 9d1e afbb 421e 27a0 9b1c c6c7 151f
000003b0: f7a8 b59e 9eb3 ce1d 15c6 579d d427 f69c
000003c0: 3b59 db1c 7c93 669e 4785 191f a727 589d
000003d0: 5fb1 189f 315d a91d a643 081f 05ba a59e
000003e0: 628c c29e d98e db1e 0259 fa9d 70a7 f21e
000003f0: 896c 781e 1f49 c59e 8ec8 8f1e 2b0b c69e
-9.021295e-21 -1.3499552e-20 3.060242e-20 1.4300103e-20 2.4228794e-20 2.4989386e-20 -1.2342182e-20 -3.5392826e-20
3.173671e-20 2.2325973e-20 -2.7393398e-20 -2.5517176e-20 1.6258825e-20 -1.8598059e-20 2.4860752e-20 -3.2408203e-20
2.0931524e-20 3.2720325e-20 -9.605689e-21 3.4552653e-20 -1.1951911e-20 3.242955e-20 -3.436975e-20 -8.875719e-22
3.4513067e-20 -1.4252522e-20 -1.31704634e-20 1.1306237e-20 -1.8957634e-20 -2.6728377e-21 2.3796169e-20 7.292528e-21
3.5377654e-21 -2.6080554e-20 3.0925356e-20 -1.5839565e-20 6.0316552e-21 2.1372806e-20 -6.977927e-21 -2.0682365e-20
1.0048604e-20 -2.789212e-20 2.863181e-20 1.9868969e-20 -2.5211614e-20 -4.938622e-21 3.14705e-20 2.597564e-20
2.4334835e-20 -2.4694875e-20 8.586796e-21 -3.4003295e-20 2.1307489e-20 -1.2200918e-20 -1.07894054e-20 -2.0578997e-20
-2.3566301e-20 3.4700236e-20 3.4236566e-20 -1.7573722e-20 -2.2738953e-21 -2.2137581e-20 -3.224585e-20 1.5136581e-20
8.7170215e-21 2.5459637e-20 2.451855e-20 -1.8424109e-20 2.4725899e-20 2.5542347e-20 -1.8386084e-20 -1.7944066e-20
-3.2747625e-20 4.5627573e-21 5.1299217e-21 -1.5031781e-20 -4.6787347e-21 -2.2274234e-20 3.1245268e-20 -1.1874187e-20
1.4244629e-20 -1.5189981e-20 2.0463632e-21 -3.5070038e-20 2.7951544e-20 -3.1431587e-20 -7.410465e-21 -1.8335811e-21
-2.1466565e-20 2.8947366e-20 4.0933243e-21 5.756329e-22 4.925678e-21 -2.2492018e-20 3.005443e-20 1.1683541e-20
1.9569085e-20 -2.3894544e-21 -2.0251693e-20 -3.541395e-20 3.403516e-20 3.3643503e-20 -2.568835e-20 -6.166963e-21
-2.6349132e-20 -2.1547252e-20 2.0790382e-20 1.8432615e-21 -1.2194983e-20 -2.5718587e-20 2.1322847e-20 -1.8036927e-20
-3.5162217e-20 2.782954e-20 -2.9733288e-20 -1.6377653e-20 -2.3745389e-20 1.736593e-20 -3.5490914e-20 -3.4907254e-20
3.4048234e-20 2.9554217e-20 7.103557e-21 -3.467933e-20 -3.975633e-21 2.8102973e-20 2.7820165e-20 3.6054375e-21
1.6376908e-20 1.3646654e-20 -6.88267e-22 2.0966644e-20 -8.973095e-21 2.3414212e-20 2.2664103e-20 -3.2059585e-20
3.611063e-20 4.5350456e-21 2.0988807e-20 3.0304166e-20 2.2572444e-20 2.0004264e-22 2.820726e-20 -1.3824737e-20
-1.43205e-21 -2.3787716e-20 -4.7492135e-21 -4.8032403e-21 -8.801938e-22 3.179599e-20 -1.4215911e-20 3.540395e-20
-2.7742613e-20 2.5392918e-20 -7.007137e-21 -6.935545e-21 1.4217883e-21 1.5380532e-20 -8.402442e-21 -2.5164167e-20
3.226089e-20 1.3447122e-20 6.76359e-21 -1.7896172e-20 2.3475085e-21 9.918865e-21 4.598408e-21 3.1081964e-20
2.6747627e-20 -4.6143984e-21 -2.0228775e-20 2.8355667e-20 -5.6229513e-21 -3.107059e-20 7.7258984e-21 6.8379806e-22
2.2306854e-20 1.7686408e-20 -1.4955634e-20 7.106594e-21 2.1929682e-20 1.3951765e-20 3.5621426e-21 -2.1830258e-21
-1.6258141e-20 -2.5665704e-20 -4.5137323e-21 1.5371253e-20 1.1092775e-21 2.7171823e-20 9.650478e-21 1.9213076e-20
-1.7169244e-20 -3.4146933e-20 -2.0518435e-20 2.3132603e-21 -1.2543199e-20 2.2999632e-21 -3.3525485e-20 8.450317e-22
-2.4423328e-20 -1.0599573e-20 1.4003702e-20 1.30013114e-20 1.6394613e-20 -2.9572392e-20 -2.8203476e-20 5.9675915e-21
2.7087163e-20 8.159158e-21 2.5158325e-20 2.904253e-20 1.631515e-20 1.3713367e-20 -2.4081914e-20 3.1238902e-20
-7.353351e-21 -1.7996372e-20 2.5204069e-20 1.5586963e-20 3.660792e-21 -1.2857589e-20 -1.5766153e-20 -9.36227e-21
2.5600665e-20 -8.233341e-21 2.4962379e-20 -1.5423482e-20 -2.0549322e-20 -1.35021935e-20 -1.5403565e-20 -5.631975e-21
1.6673165e-20 1.03090865e-20 1.0298438e-21 3.1717226e-20 -1.9234003e-20 5.4713466e-21 -2.855742e-21 -1.628921e-21
1.451527e-21 -1.2206598e-20 3.2509255e-20 -2.8607862e-21 -3.233397e-20 4.4830285e-21 2.8855078e-20 -1.754699e-20
-2.059861e-20 2.3246607e-20 -6.626648e-21 2.5691997e-20 1.3151455e-20 -2.0888429e-20 1.5223661e-20 -2.0968684e-20

bias f4 [32]
00000000: e06e 1d1f c4d0 971d 3236 511e 9314 f19e
00000010: 24bc 0f1e b52e 0e1f 4098 1c9f a14b ca1e
00000020: 41f3 e01e e225 ac9d e10e 231f 80de 101f
00000030: 7532 ed9d 7f92 081f 421b fd1e adfa f31e
00000040: 0c01 229f 5580 cf1e 47c1 281f a73d 171f
00000050: dda2 a59e de6f 229e 9a08 6e9e e5e3 1d1f
00000060: 6d9d db9e 352c 8a1e a41c 1e9f 9084 c69e
00000070: 9e0c 619d ab41 199f b993 fb1e c524 711e
3.3337757e-20 4.0185226e-21 1.1075575e-20 -2.5525377e-20 7.6092635e-21 3.0108305e-20 -3.3160223e-20 2.1418861e-20
2.381753e-20 -4.556719e-21 3.45289e-20 3.0677234e-20 -6.278555e-21 2.89203e-20 2.679869e-20 2.5832303e-20
-3.43057e-20 2.1970054e-20 3.573526e-20 3.202649e-20 -1.7537413e-20 -8.599342e-21 -1.2601394e-20 3.3434553e-20
-2.3252637e-20 1.4629602e-20 -3.3481492e-20 -2.1018892e-20 -2.9785025e-21 -3.245333e-20 2.6636755e-20 1.27660375e-20

weight f4 [32, 32, 5, 5]
00000000: 04c4 f39e 5f13 109f 02bf 0b1f af62 0a9f
00000010: 15dd 569d 6ed6 1c9f 1deb 9e1e e526 a49e
00000020: 060f 1f9f cd5e f89d 9062 1d1f e678 299e
00000030: 4afe e71e b096 d01b 51bb 369e 5837 771d
00000040: 2ee2 5b1e 83fc 079f acd4 929d 61da de1e
00000050: f87f 339d aa3f 159f d8fa e61e 691c 119f
00000060: 8ade 949e 0a4f 121f de5a 149f eaa4 879e
00000070: feb2 d69e 590a d11e e0e8 8d9e 9993 901e
00000080: fcf2 f51e 2722 b09e f91f 0c9f 317d 619e
00000090: 56dc 2a1f 8ba8 f81e abfd fa9e 5a60 c91c
000000a0: 1bc2 1b1e 3ec9 a89e 5ac1 181f e299 279d
000000b0: 15e6 409e c64b b39d e629 bb1e 5976 a99c
000000c0: 8682 241f 77f0 9f1e 7c0f bd9d b62a d79e
000000d0: 4b3f 4f1e 3c1b 131f 4eb3 bf1e 5bca a71e
000000e0: 21c6 899e e121 e59e f715 241e 38b9 d99e
000000f0: eed6 069e 8f16 fe9e e520 109f 8c6d 6e9e
00000100: ffc6 e79e f8d6 d91e 2350 c19e 99bc 141f
00000110: 4859 291d fdb4 ea1e 06ee 041f 22f8 e09e
00000120: 3a12 2c9f 164e a09d 5846 c81e 2223 8e1d
00000130: dc66 879e b9a5 d19e 5f84 809e c1e1 ba9c
00000140: ae23 161d 3e6d de9e bbde c81c 0299 e59c
00000150: 9877 121f c2d9 ed9e b8a5 059f b5bd 679e
00000160: e059 8b1d 9ba8 c79d 59bf 199d c00e 751e
00000170: d7a2 e51e 83cb 309e 25e3 901e 2be0 d71e
00000180: ae2c 1a1f 042c 0d1f e447 e21e 6b03 c41e
00000190: 5951 851e 32f2 009e e9f9 0c1e 5ef5 f99d
000001a0: 8759 691d a271 6c1e 40ed 319e e35c a69d
000001b0: 03d0 6e1e f7bb a29e 74cd 159f a293 0d9f
000001c0: c94f 689e 19f2 ef1e ed29 8e1e c9f8 ee9e
000001d0: 2388 2b9f 716b ad1e b141 141e b355 f91d
000001e0: 0cc9 c81e b0e1 021f 96b4 359d 9416 f59c
000001f0: 879c 499d 07a3 0a9e 8ded 1a1f 2fd8 871e
00000200: 2fa0 5f1d 1140 131f 500d 869e bd81 d09e
00000210: bab6 099e c3fb 7e9e 4806 9c9e bc91 291f
00000220: c5e5 c51e 34ac 519e b4bf be1e 2778 0d1e
00000230: 6cd3 001f 6a44 ea1e 9225 ad9e be6d 979e
00000240: 1f90 bb1e 19ed b51e 0043 e29d d29c 3c9e
00000250: 00af c41d 8f4e e89d c8dc 581e 7a5d 0c9f
00000260: e068 731e c6f9 159d a62f 0e9f 51df 9a1e
00000270: 5ceb cd1e 8ef8 1f9f 851d 489e 236a 079f
00000280: b290 7d9d 2ef5 0e1f 488b 131f d545 0e1f
00000290: 710a 3d1e b4a3 281f 409d 209f 3849 fe9c
000002a0: a200 1a1f 758b 111f 0543 ad9e fe09 ce1e
000002b0: 66f8 c49e eb47 0c9e f5a7 501e b3ce e99c
000002c0: d5a3 761d 8fb2 1e1f ce46 141f 832d 031e
000002d0: 7b91 821e fd09 ff1e 589c 261f dc4f 3a9e
000002e0: f978 7f1e 363b 049f 3de9 129f f481 4f9e
000002f0: 8633 591d 44c4 1b9e e25a 011f 4953 749e
00000300: cf7d 2a1f 5802 2b9f 1181 089f d2e8 1a9f
00000310: 5b38 861e 5a04 959e a975 001f cff8 b39a
00000320: 1d33 779d 5fec 9a9e 643f e31e cab1 5c1d
00000330: d525 179e 8fe3 c71e 54b8 109f ce5f eb1e
00000340: d66d a39e 3fa5 f21e 8b99 581e 18bf d39e
00000350: 0828 001f e43a 011e 883c 4f9d 914a 981e
00000360: 6d14 239f d435 031f f1f3 aa9d c9cf 2f9e
00000370: 6c7c c01d 8853 369e f3f8 c19d 0dc6 511b
00000380: bbe4 121f 9d6e 181f 4529 4a1e acbc f91e
00000390: 868b 059d 40f6 e61d bfa4 6d1d 7e53 831e
000003a0: 0a70 e01c 89e3 221f 2006 261f 8958 b49e
000003b0: bedb 191e 10f7 891d 6895 0d9f 67ba 061f
000003c0: 8051 4f1e ffce 581e 80b6 ce9e 82d7 909e
000003d0: 472a 0e1f b439 011e 3eea 079f a1cc 1a9f
000003e0: d15e d61d a7d9 f11e 5121 739d db79 179e
000003f0: c46b f99e 3a4e 021e d29b 369d ee19 159f
-2.5809696e-20 -3.050921e-20 2.9592393e-20 -2.9304266e-20 -2.843696e-21 -3.3211657e-20 1.6826141e-20 -1.7380262e-20
-3.3681987e-20 -6.5743075e-21 3.3327572e-20 -8.971787e-21 2.4563248e-20 3.4508093e-22 -9.673736e-21 3.271879e-21
1.1640536e-20 -2.8796235e-20 -3.8865776e-21 2.3595484e-20 -2.3756611e-21 -3.160464e-20 2.4455944e-20 -3.0728445e-20
-1.576215e-20 3.0982082e-20 -3.1415383e-20 -1.4361888e-20 -2.273216e-20 2.2133015e-20 -1.502527e-20 1.5307638e-20
2.604088e-20 -1.864885e-20 -2.96726e-20 -1.193729e-20 3.6181158e-20 2.6327729e-20 -2.6574694e-20 1.3325971e-21
8.245772e-21 -1.7870924e-20 3.234719e-20 -2.2181822e-21 -1.0211975e-20 -4.7459253e-21 1.9816724e-20 -1.1214074e-21
3.4836317e-20 1.6934234e-20 -5.0043894e-21 -2.2781675e-20 1.09715774e-20 3.115099e-20 2.029707e-20 1.7765505e-20
-1.4587383e-20 -2.426033e-20 8.68663e-21 -2.3052373e-20 -7.138347e-21 -2.6902626e-20 -3.0520396e-20 -1.2622269e-20
-2.454038e-20 2.3064678e-20 -2.0467814e-20 3.1496223e-20 2.2413121e-21 2.4850569e-20 2.8148976e-20 -2.3819548e-20
-3.6437493e-20 -4.2432386e-21 2.1204917e-20 3.7623414e-21 -1.4336223e-20 -2.2197277e-20 -1.3607275e-20 -1.2366804e-21
1.987078e-21 -2.3550346e-20 1.3292464e-21 -1.51935e-21 3.1015628e-20 -2.5183414e-20 -2.8300925e-20 -1.2268269e-20
3.6885922e-21 -5.2849195e-21 -2.0348306e-21 1.2973242e-20 2.4313667e-20 -9.359448e-21 1.5340538e-20 2.2856724e-20
3.2647727e-20 2.989432e-20 2.3958414e-20 2.0753721e-20 1.4115567e-20 -6.826348e-21 7.4632185e-21 -6.6163455e-21
3.0883578e-21 1.2517235e-20 -9.419364e-21 -4.4035877e-21 1.2642631e-20 -1.7230158e-20 -3.1721924e-20 -2.998003e-20
-1.2298477e-20 2.5405239e-20 1.5052175e-20 -2.5302125e-20 -3.6323268e-20 1.8361524e-20 7.8486394e-21 6.5998362e-21
2.1258975e-20 2.7715255e-20 -2.4048511e-21 -1.6218576e-21 -2.6683051e-21 -7.3393724e-21 3.2807266e-20 1.4383092e-20
2.9596617e-21 3.1181455e-20 -1.4193308e-20 -2.2076515e-20 -7.2905066e-21 -1.3498711e-20 -1.651974e-20 3.590769e-20
2.0953217e-20 -1.1099979e-20 2.0196319e-20 7.489325e-21 2.727994e-20 2.4804009e-20 -1.8332626e-20 -1.6033135e-20
1.9859002e-20 1.9262182e-20 -5.989098e-21 -9.985067e-21 5.2061714e-21 -6.1491116e-21 1.1480601e-20 -2.9723475e-20
1.28860005e-20 -1.9849116e-21 -3.0109083e-20 1.6397746e-20 2.1802562e-20 -3.387516e-20 -1.0594016e-20 -2.8675156e-20
-3.3559077e-21 3.0272478e-20 3.124367e-20 3.0127433e-20 1.0007736e-20 3.5710796e-20 -3.4011392e-20 -1.6827237e-21
3.2611292e-20 3.08203e-20 -1.8344806e-20 2.1815231e-20 -2.0855042e-20 -7.4264106e-21 1.1046161e-20 -1.5472077e-21
3.2642528e-21 3.3605502e-20 3.1398787e-20 6.944494e-21 1.3824455e-20 2.7003306e-20 3.5281192e-20 -9.8632725e-21
1.3524604e-20 -2.8001065e-20 -3.1109633e-20 -1.09853624e-20 2.8746348e-21 -8.2462185e-21 2.739199e-20 -1.29344754e-20
3.6102967e-20 -3.6212597e-20 -2.890588e-20 -3.2803353e-20 1.421111e-20 -1.5777788e-20 2.720238e-20 -7.4434637e-23
-3.2716603e-21 -1.6403145e-20 2.4060778e-20 2.9208672e-21 -8.001697e-21 2.116406e-20 -3.064566e-20 2.4921217e-20
-1.7303723e-20 2.5691091e-20 1.1466697e-20 -2.2419529e-20 2.7138167e-20 6.8413814e-21 -2.7427516e-21 1.6124466e-20
-3.453349e-20 2.7784855e-20 -4.5250855e-21 -9.307392e-21 5.0950626e-21 -9.652274e-21 -5.1344082e-21 1.7352068e-22
3.1105904e-20 3.227875e-20 1.0702325e-20 2.6441933e-20 -1.7674535e-21 6.113511e-21 3.145186e-21 1.3904696e-20
1.4852038e-21 3.4493047e-20 3.5156934e-20 -1.9094859e-20 8.145194e-21 3.6519055e-21 -2.9981497e-20 2.8529792e-20
1.09753426e-20 1.14777506e-20 -2.1886579e-20 -1.5335725e-20 3.010464e-20 6.841136e-21 -2.8781123e-20 -3.2780034e-20
5.6743366e-21 2.5606886e-20 -3.2178006e-21 -8.0190726e-21 -2.6408471e-20 6.8983196e-21 -2.4168057e-21 -3.1573426e-20

bias f4 [32]
00000000: 9a75 da1e ed00 ed1e 807a 909e 9a43 d81e
00000010: 9fbb f49e 3ab7 f99d a4ee 3e9d 4d10 1f1f
00000020: d993 dd1e ea06 b99e 47c0 399e b0b1 fa1e
00000030: 6e8c 6a1e 4f16 6d1e 4a0b c21e 8e84 1d1f
00000040: 093b 961e f6fd e89c 5816 0b9f f8b0 c11e
00000050: cc80 e89d 586f d29d 105b b89e 2052 851e
00000060: 9b79 011e f1e8 189f e39d 439c 8d21 fa1e
00000070: e10c 281f 9acc f49e 590c 811e 1df7 d61c
2.3130287e-20 2.5093734e-20 -1.5297258e-20 2.2897849e-20 -2.5912103e-20 -6.6099203e-21 -2.5269665e-21 3.3683043e-20
2.3460434e-20 -1.9590496e-20 -9.8335805e-21 2.654327e-20 1.2416897e-20 1.2551289e-20 2.0545218e-20 3.335569e-20
1.5906284e-20 -1.541812e-21 -2.9452877e-20 2.0507862e-20 -6.154306e-21 -5.5701664e-21 -1.951942e-20 1.4115889e-20
6.8543506e-21 -3.2379937e-20 -6.472415e-22 2.6483656e-20 3.5586037e-20 -2.5919126e-20 1.3663513e-20 1.4225209e-21
