src/ML/model.pth (torch, 658101 bytes, 16 tensors)

weight f4 [16, 4, 5, 5]
000000 d3 ae 25 bd 94 e0 f3 bc d2 13 4c 3d 96 85 3b 3d
       -0.04044993 -0.029770173 0.04982359 0.045781694
000010 42 95 36 3d d6 87 07 bd 92 85 5d 3d 00 e0 1e bc
       0.044575937 -0.033088528 0.05408246 -0.00969696
000020 e8 f0 4c 3c 31 e1 88 3d b3 7e 60 bd fc cb 14 bd
       0.012508608 0.06683577 -0.05480833 -0.036327347
000030 7a 0e 63 bd 2b 7f cb bd c3 90 63 bd c0 99 a4 3c
       -0.055433728 -0.09936365 -0.055557977 0.020092845
000040 1b 2a b7 bd de d5 26 3d 0c a9 fc 3c 90 57 c1 bd
       -0.08943578 0.040731303 0.030842327 -0.09440529
000050 a8 b4 f7 bc f7 fa 76 bd ba 34 18 bd c0 58 1f bd
       -0.03023751 -0.060297932 -0.03715966 -0.038902998
000060 5f 20 95 3d 08 6f 84 3c c0 cc c9 3a 98 10 69 bc
       0.07281565 0.016166225 0.0015396103 -0.014225148
000070 d2 6e 7d 3d e7 ec c7 bd 8e d1 48 3d ce 7e 57 3d
       0.061873265 -0.097619824 0.049027972 0.052611165
000080 92 81 76 3d 09 e5 c6 3d b3 2e 98 bd f0 7c c5 bd
       0.06018216 0.09711654 -0.07430782 -0.096429706
000090 f3 8e 4e bd 6f b2 84 3d ee ec 17 3d 5d 8e ba 3d
       -0.050429296 0.06479346 0.037091188 0.09109185
0000a0 14 33 fc bc f9 fd 8e 3d f7 ba 5e bd 00 10 bb b9
       -0.030786075 0.06982035 -0.054377522 -0.0003567934
0000b0 65 93 a9 bd 00 4f ef bc c7 cf 9a 3d 61 fe b6 3d
       -0.082800664 -0.029212475 0.07559162 0.08935238
0000c0 80 bb ea 3a 40 20 bc bd a0 22 d5 bb 00 e5 6c 3c
       0.0017908663 -0.09185839 -0.0065043718 0.014458895
0000d0 1a 1b 10 bd d1 ba 8a 3d b0 b5 6a bd 2b 27 87 3d
       -0.035182096 0.06773914 -0.057302177 0.065992676
0000e0 d2 67 75 3d 02 21 a1 bd b4 e0 86 bd c2 17 36 3d
       0.059913464 -0.07867624 -0.065858275 0.04445625
0000f0 49 4e ae 3d 5e e2 0d 3d c2 4b 11 3d 92 72 bb bd
       0.085110255 0.03463971 0.03547264 -0.09152712
000100 30 fc e9 bb f4 ab d2 3c 6d df 9b bd 03 33 b8 bd
       -0.007140659 0.02571676 -0.076109745 -0.08994105
000110 00 38 36 bd 02 a0 4d 3d 70 ae 28 bc 49 3b b0 3d
       -0.044487 0.050201423 -0.010295495 0.08605058
000120 25 fb 99 bd 34 91 8a bd 09 02 bc 3d ae 06 42 3d
       -0.07518605 -0.067659765 0.09180076 0.04736965
000130 8a 35 ab bd 89 2e bb 3d 22 be 2b 3d 6c 12 ea bc
       -0.08359821 0.09139735 0.04192937 -0.028573237
000140 d0 d8 9d 3b 50 dd e6 3b 7b 1e cb 3d 03 0d 85 3d
       0.004817106 0.0070454255 0.09917923 0.064966224
000150 22 dc 47 3d 10 4a 13 bc 8f 8d c0 bd 68 0e 88 3c
       0.04879392 -0.008989826 -0.09402 0.016608432
000160 f7 40 c4 3d 00 a5 1e bb 80 ff f4 3b 40 40 56 bd
       0.095827036 -0.0024207234 0.007476747 -0.052307367
000170 29 79 aa 3d f3 ad a1 bd da 0c 2d bd 8a 2a 0a 3d
       0.08323891 -0.07894506 -0.042248584 0.033731975
000180 ed 11 aa bd 80 73 dc 3b 85 b2 aa 3d e8 df a8 bd
       -0.083042 0.006727636 0.08334831 -0.08245832
000190 00 8c 08 3b c0 c9 5d bc e7 96 aa 3d 4d 31 7f bd
       0.00208354 -0.0135368705 0.083295636 -0.062302876
0001a0 02 f4 19 3d 0a fb 62 bd 20 56 72 bd da c2 27 3d
       0.03758622 -0.05541519 -0.059164166 0.04095731
0001b0 5e 56 72 3d 1a 8c 89 bd 02 1e 6d 3d 68 7b 5b bc
       0.059164397 -0.067161754 0.057889946 -0.013396122
0001c0 b3 1e be bd 72 ae 7e 3d 6a d6 65 3d 5b 3d b8 bd
       -0.09283199 0.062178083 0.056112684 -0.089960776
0001d0 35 a7 80 bd 57 fe 9f 3d 77 1a bb 3d 2b 3e c8 3d
       -0.06281892 0.07812183 0.09135907 0.097774826
0001e0 5b d5 a9 bd 20 0c d3 bc f2 7e 62 3d 20 9d 8f bb
       -0.082926475 -0.025762618 0.055296846 -0.0043827444
0001f0 7d 5d 7d bd 40 71 1a bd 81 6e af 3d c0 90 56 bd
       -0.061856735 -0.03770566 0.08565999 -0.052384138
000200 16 d2 24 3d bb 07 b8 3d a0 fc cf 3b 77 33 99 3d
       0.040239416 0.089858495 0.006347254 0.07480519
000210 73 87 b3 3d bc df e4 3c 10 b5 10 bc 2e d0 75 3d
       0.08766069 0.027938716 -0.008832231 0.06001299
000220 80 0a fe ba a0 15 60 bb 58 c9 a4 bd 7e 73 50 3d
       -0.0019381791 -0.0034192577 -0.08046216 0.050891392
000230 93 9e 35 bd 80 67 33 bd dd 96 81 bd 57 3d 46 bd
       -0.04434068 -0.043799877 -0.06327603 -0.048398342
000240 33 09 94 3d e6 58 0f 3d 8b 76 b6 3d 7e 1f a6 bd
       0.07228317 0.03499689 0.08909329 -0.081114754
000250 2c e0 e3 bc 03 b5 c2 3d 6c 5e 19 bd 7a 84 71 bd
       -0.027816854 0.095071815 -0.037443563 -0.05896423
000260 0f ab 8f 3d 2d 31 c4 bd b4 c3 e0 bc c3 35 2a bd
       0.07015049 -0.09579692 -0.027437069 -0.041555177
000270 cd 77 1e bd 69 c9 b6 3d 88 9f 88 bc 0a 97 cb bd
       -0.03868847 0.08925135 -0.016677633 -0.09940918
000280 e4 ea d6 3c 00 fd 9e 3b d2 15 56 3d 58 f4 c0 3c
       0.026235051 0.0048519373 0.052266903 0.023554012
000290 d2 f1 59 3d f0 b0 3f bd fe 2a 77 3d 67 5a b2 bd
       0.053209133 -0.0467996 0.060343735 -0.08708649
0002a0 80 d6 06 ba f6 83 7f 3d 30 c8 a0 bb 1f 82 c6 3d
       -0.00051436573 0.062381707 -0.0049066767 0.096927874
0002b0 61 8c c8 3d 60 96 36 3b 82 17 4a 3d 18 85 64 3c
       0.097924 0.0027860627 0.049338825 0.013947748
0002c0 f8 2b 84 bc 72 fa 08 3d 70 a6 b9 bd fb 8e ab bd
       -0.016134247 0.03344197 -0.090649486 -0.08376881
0002d0 8a 49 71 3d f2 77 55 3d 10 33 6a bd c3 d4 be bd
       0.058908023 0.052116342 -0.057177603 -0.09317925
0002e0 86 94 26 3d c7 aa 5c bd 43 cf 29 bd d9 df bf 3d
       0.040668987 -0.053873803 -0.041457426 0.093688674
0002f0 12 cb 26 3d 2d 76 6d bd f9 53 c6 3d 7a b7 c5 bd
       0.040721007 -0.05797403 0.09683985 -0.09654136
000300 28 c0 40 3c ba f3 56 3d 87 f5 c0 3d 54 22 c1 bc
       0.011764564 0.05247853 0.094218306 -0.02357594
000310 e3 2a ca 3d e2 36 8c bd 91 cf ac 3d 12 b2 29 3d
       0.09871461 -0.068464056 0.08438028 0.041429587
000320 e7 cb b7 3d 40 26 47 bc 08 37 a2 3c 44 31 da 3c
       0.08974438 -0.012155116 0.019801632 0.02663482
000330 00 62 ed ba 0c 9c ec bc 25 a9 93 3d 50 ce 29 bc
       -0.0018110871 -0.028883003 0.07209996 -0.01036413
000340 90 e7 51 bc 80 a9 af bb 77 63 79 bd 45 c3 a4 3d
       -0.012811556 -0.005360782 -0.060885873 0.08045057
000350 80 af 1f 3c e8 2c 24 3c 20 ab fa bb c0 87 18 3b
       0.009746432 0.010020472 -0.007649794 0.0023274273
000360 f2 58 48 3d e5 81 8a 3d 75 f5 96 bd 00 da f6 3a
       0.04891295 0.06763057 -0.07371036 0.001883328
000370 00 6f a9 bc ed c7 49 bd 00 35 ac b9 38 35 e1 bc
       -0.020682812 -0.04926293 -0.00032845885 -0.027491197
000380 4e ed a6 bd 00 31 95 3c a3 c8 c7 3d 80 0f 1c bc
       -0.08150731 0.018211842 0.09755065 -0.00952518
000390 02 26 2f 3d b4 74 da bc 4b ab c3 3d 17 d5 ba 3d
       0.042760856 -0.026666977 0.09554156 0.09122675
0003a0 30 58 0c bc 30 d9 7c bc 52 31 65 3d ac da 86 bd
       -0.008565947 -0.015432641 0.05595524 -0.06584677
0003b0 80 16 73 ba 4d 0c 94 bd 22 a8 50 3d 84 cd e6 3c
       -0.0009273067 -0.07228909 0.050941594 0.02817417
0003c0 87 d4 96 3d 9f 98 a4 3d 09 bb 89 3d e8 18 5f bc
       0.07364755 0.08036923 0.06725127 -0.013616778
0003d0 23 54 8c 3d 03 f1 26 bd 10 e2 5d 3c 82 78 9a bd
       0.06851985 -0.04075719 0.013542667 -0.07542516
0003e0 48 ab 85 bd 40 37 33 3b e0 2e b4 bc 68 2d 90 bc
       -0.0652681 0.0027346164 -0.021995008 -0.017599776
0003f0 00 4c 77 3a 34 8d ed 3c a3 66 41 bd 97 c8 bd 3d
       0.0009433627 0.028997995 -0.047217023 0.09266775

bias f4 [16]
000000 1a c9 a6 bd 0a 29 54 bd 6a 94 c8 bd 66 46 10 bd
       -0.08143826 -0.05179695 -0.09793933 -0.035223387
000010 f2 7a 15 3d 40 33 60 3b d5 aa 85 bd fa c8 38 bd
       0.036494203 0.0034210235 -0.06526724 -0.04511354
000020 6b 7b b8 3d 6a 7c 35 bd d8 a5 92 3c cc 3d d2 bc
       0.09007915 -0.044308104 0.017901346 -0.025664233
000030 ba 74 02 bd e6 69 a7 bd 5b 8b be bd 86 e7 0e 3d
       -0.0318496 -0.081744954 -0.09303924 0.034888767

weight f4 [32, 16, 5, 5]
000000 b6 e6 95 bc d7 c9 d2 bc d8 cc 94 bb ec a9 53 bc
       -0.018298488 -0.02573101 -0.004541021 -0.0129189305
000010 60 14 7f 3b eb f0 11 bd 43 9b fe bc 73 ea 46 bd
       0.0038922057 -0.035630148 -0.031079894 -0.048563432
000020 98 9e 0a 3c 8a 08 f1 bc 5e e5 e6 3c a8 ff 53 bc
       0.008460663 -0.029423017 0.028185543 -0.012939371
000030 58 a6 3b bc b0 bc 4d 3b 6c 06 72 bc 72 a4 b1 3c
       -0.011453234 0.0031392984 -0.014772039 0.021684859
000040 4c 05 4f 3c bd bb 04 3d 98 4b cf 3b 50 07 98 bb
       0.01263554 0.032405604 0.00632615 -0.0046395436
000050 f7 f9 b4 bc 08 2d 4a bc 43 8e 35 3d ab 4f 11 3d
       -0.022091849 -0.012339838 0.044325124 0.035476368
000060 e0 81 8a bc 05 2a 0a bd 67 ab 43 3d 22 9e d6 3c
       -0.016907632 -0.03373148 0.047770884 0.02619845
000070 b0 c0 6c 3b 31 5d 02 3d 12 8a dc 3c 16 1b b8 3c
       0.0036125593 0.031827156 0.026921306 0.022473853
000080 92 72 d8 3c ea 4d fd bc e3 8b 43 bd 4c 6e 42 bc
       0.026421819 -0.030920941 -0.04774083 -0.011867117
000090 ad 06 e1 bc b4 68 28 3c d0 da a2 bc ca 84 96 3c
       -0.027469004 0.010278869 -0.019879729 0.018373866
0000a0 ce 58 1e bd f3 0a 29 3d a1 1b 27 3d f3 d5 cb bc
       -0.03865891 0.041270208 0.040797833 -0.024882292
0000b0 7a a0 9c 3c be 72 12 bd dd 65 f5 bc cf 84 1f 3d
       0.01911949 -0.035753958 -0.029955799 0.038945016
0000c0 c4 fe 00 bd 4a b0 de 3c e1 e7 3f 3d 1a c6 ba bc
       -0.031492963 0.02718367 0.046851996 -0.02279954
0000d0 60 c3 93 bc ce 6c fb 3c 45 30 37 bd b3 74 32 bd
       -0.018037498 0.03069153 -0.044723768 -0.043568324
0000e0 c0 4a cc ba 56 99 bc 3c 1f 67 48 3d 68 f1 cd bb
       -0.0015586242 0.023022335 0.04892647 -0.0062848814
0000f0 3c 7d 8e bc 62 b9 95 3c a4 c0 8a bc 22 f7 18 bd
       -0.0173937 0.018276874 -0.016937561 -0.03734506
000100 d9 eb 37 3d 52 d4 eb 3c cf cf 46 3d 4c 60 06 3c
       0.044902656 0.028787766 0.048538025 0.00820167
000110 30 34 74 3b 3a bc 04 bd 7e 26 f7 3c 10 d4 9d 3b
       0.0037262551 -0.03240607 0.030169722 0.0048165396
000120 67 f1 fc bc 8d d5 2a 3d 58 3d b9 3b 6a 07 1f bd
       -0.030876828 0.041707564 0.0056530647 -0.03882543
000130 c2 ac d0 3c c7 1a f7 bc 57 74 2e 3d c2 69 20 bd
       0.025473002 -0.030164136 0.04259142 -0.03916336
000140 9d 57 31 3d f1 a7 06 3d 40 8c bd 3b 98 8d 9c bb
       0.043296445 0.032875005 0.0057845414 -0.0047776215
000150 43 ae 02 3d c0 11 cc 3b 1a e2 ce bc 25 df 03 bd
       0.03190447 0.006227702 -0.025254298 -0.03219523
000160 2a f0 47 bd aa 0c 18 bd b3 8d ba bc 86 63 98 bc
       -0.048813023 -0.037121452 -0.022772646 -0.018602144
000170 95 f3 16 bd 20 ac 4f bb 3a 54 c2 bc 48 8c 3d 3c
       -0.03685339 -0.0031688288 -0.023721803 0.01156909
000180 9e 02 1d bd 6c 6e 35 bc 52 88 a7 3c c9 81 43 3d
       -0.038332574 -0.01107369 0.020450745 0.047731195
000190 da 62 dc 3c ae f7 02 bd 94 c7 38 3c 4b d8 3c 3d
       0.026902605 -0.031974487 0.011278052 0.04610471
0001a0 9a fa 2e bd 60 24 a1 bc 8d 39 4b bd 23 6d 15 3d
       -0.04271946 -0.019670665 -0.04961543 0.036481034
0001b0 3b 0d 2d 3d 9a 76 f5 3c 37 8a b1 bc 3a 48 43 bd
       0.042248946 0.02996378 -0.021672351 -0.047676302
0001c0 00 39 42 bd cb eb 04 3d fb 22 14 bd 43 07 fd bc
       -0.04741764 0.032451432 -0.036166172 -0.030887252
0001d0 79 37 33 3d 9d 06 44 bd 89 b3 07 3d d8 55 87 3b
       0.043754075 -0.04785787 0.033130202 0.0041301064
0001e0 04 46 0a bd 60 30 4e bb 2e c4 e1 3c 9b 4b 0a 3d
       -0.03375818 -0.003146194 0.027559366 0.03376351
0001f0 10 7b da bb 30 40 8c 3b 2c 47 6f bc e6 fe 8f bc
       -0.006667502 0.0042801127 -0.014604371 -0.0175776
000200 c2 81 f5 3c e7 28 a0 bc ce e1 1f bd 4d 73 3c bd
       0.0299691 -0.019550754 -0.039033704 -0.046008397
000210 60 81 ed ba 5f fb 24 3d 20 3b 04 3b 94 ca 71 3c
       -0.0018120222 0.04027879 0.0020176843 0.014757771
000220 88 04 09 bd a8 3d 18 3c 00 5c bf bc c6 4e 91 bc
       -0.033451587 0.009292044 -0.023359299 -0.017737757
000230 a7 df 2e 3d 32 f1 d1 3c 58 a6 40 bd ed 94 cb bc
       0.04269376 0.025627706 -0.047033638 -0.024851287
000240 30 5e 4b bb 3a 21 9a 3c e3 00 a6 bc c6 f1 ae 3c
       -0.0031031482 0.018814672 -0.020264095 0.021355521
000250 60 aa 38 bb 62 70 e6 3c b9 98 32 3d 94 c5 69 bc
       -0.0028177723 0.02812976 0.04360268 -0.014268298
000260 69 97 1a 3d aa 1f e0 3c b0 48 70 3b 18 30 b2 bb
       0.037742052 0.027358849 0.003666442 -0.005437862
000270 91 ec 47 3d 75 e7 18 bd 42 ea 11 bd ed 84 ff bc
       0.04880959 -0.03733011 -0.035623796 -0.031191314
000280 73 02 ee bc 02 19 8b 3c d7 4d c3 bc a0 51 88 bc
       -0.029053902 0.016979698 -0.023840828 -0.016640484
000290 a2 cf 89 3c 60 6d 38 3b 40 44 b8 bb bc 30 50 3c
       0.01682264 0.0028141364 -0.0056233704 0.012706932
0002a0 73 5d d0 bc d4 cd 6b bc a0 b9 29 3b 46 c8 de 3c
       -0.025435185 -0.014392335 0.0025897995 0.027195107
0002b0 e4 c1 64 3c e8 46 c4 3b 92 ef c1 3c 09 e4 02 3d
       0.013962243 0.005989898 0.023673806 0.031955753
0002c0 80 83 0a 3b 08 46 35 3c 68 fc d4 3b f4 1f 60 bc
       0.002113551 0.01106406 0.0064998157 -0.013679493
0002d0 da 7b 86 3c 2c 73 11 bc 6b 0f 35 bd c6 bd 00 bd
       0.016416479 -0.008877557 -0.044204157 -0.031430982
0002e0 22 b0 84 3c 85 a3 33 3d 80 04 e3 3b f3 70 a8 bc
       0.016197268 0.043857116 0.0069280267 -0.02056167
0002f0 3a 35 84 bc ae 02 b8 3c 8d 8b 04 3d 65 f9 3d bd
       -0.016138662 0.022462215 0.03235965 -0.04638042
000300 b2 19 de 3c 08 72 75 bc d2 d2 fa 3c 2e b1 a1 3c
       0.027111862 -0.0149808 0.030618105 0.019737806
000310 54 40 42 bc 9e 56 8f 3c 87 30 eb bc d8 cb aa 3b
       -0.011856157 0.017497357 -0.028709663 0.0052122883
000320 4f dc 3c 3d 9f dd 45 3d 72 41 05 bd 72 14 fa 3c
       0.04610854 0.048307057 -0.032533117 0.030527327
000330 72 99 18 bd d8 29 e7 bb d9 a3 3f 3d e0 2d 53 bb
       -0.03725571 -0.0070545487 0.046787117 -0.0032223389
000340 00 ec 6c 38 10 92 d9 3b 30 b7 1b 3b 07 25 2f bd
       5.6486577e-05 0.0066397265 0.0023760311 -0.04275992
000350 37 9e 12 3d c1 da 15 3d 8a 17 87 3c 9e b2 94 3c
       0.035795417 0.036585573 0.016490716 0.018151578
000360 80 49 3e 3b f7 4e ef bc 4f e4 33 3d 50 e8 49 3b
       0.0029035509 -0.029212458 0.043918904 0.0030808635
000370 a0 b4 6f 3b 26 c0 8a bc f4 51 5a bc 88 d2 1e bc
       0.0036576167 -0.016937327 -0.013325203 -0.009693749
000380 cc c5 4b bc 51 bb 02 3d 93 4f 9a bc 98 df 25 bd
       -0.012437295 0.03191692 -0.018836772 -0.04049644
000390 07 a8 37 3d 50 67 a2 bb ac 4c 02 bc a9 32 37 3d
       0.044837978 -0.0049561635 -0.00795285 0.044726048
0003a0 22 bd 37 bd 47 d5 fc bc e3 fd c6 bc f1 72 38 3d
       -0.044858105 -0.030863417 -0.024290984 0.04503149
0003b0 fe 28 2c bd c7 7d c7 bc 23 cf d0 bc b4 1b 19 bc
       -0.04203128 -0.024351967 -0.025489395 -0.009344984
0003c0 82 69 cd 3c 6c 5f 62 3c d8 a7 02 3c 5c df 94 bc
       0.025074724 0.013816696 0.007974587 -0.018172912
0003d0 05 9d 2c 3d c4 e5 89 bc 12 39 1d bd 18 b7 fb bb
       0.042141933 -0.016833194 -0.038384505 -0.0076817386
0003e0 9e e8 f6 3c 5d 0e ac bc 00 dd c4 b9 c0 b8 85 bc
       0.030140217 -0.021002943 -0.0003754869 -0.016323447
0003f0 67 a9 09 3d 01 9a 45 3d 18 ca 75 bc 43 3a fa bc
       0.03360882 0.048242573 -0.015001796 -0.03054536

bias f4 [32]
000000 9f 96 43 bd 25 98 42 bd 8b 4f 4b 3d f4 47 0a bc
       -0.047751065 -0.047508378 0.049636405 -0.0084400065
000010 1a 69 91 bc d8 9f e1 3b ac e1 31 bc 36 9b c9 3c
       -0.017750312 0.00688551 -0.010857027 0.024610143
000020 28 fb 69 bc 18 e2 60 bc 27 fd ce bc 95 c7 18 bd
       -0.014281072 -0.01372578 -0.025267197 -0.03729971
000030 01 e6 33 3d a8 3c 15 bd 99 ef 30 3d fa 35 d8 3c
       0.04392052 -0.0364348 0.043197248 0.026392926
000040 50 d8 a4 3b 05 a2 16 bd 10 53 92 bb 71 a3 39 3d
       0.0050306693 -0.036775608 -0.004465468 0.045321885
000050 14 6c 2d 3c 18 f3 4b bc aa 4d 95 bc 1b 38 2a bd
       0.01058485 -0.012448095 -0.01822551 -0.041557413
000060 fc c1 5e 3c 39 05 46 3d 4b 18 32 3d 45 23 28 bd
       0.013596054 0.048344824 0.0434802 -0.04104926
000070 e7 9c 48 bd 65 53 12 bd 52 db b7 3c be 60 c3 3c
       -0.04897776 -0.035724062 0.022443447 0.023849841

weight f4 [32, 32, 5, 5]
000000 1c 2a 80 bc 90 e7 81 bb 5c 63 3a bc b8 d8 8e bc
       -0.01564508 -0.003964372 -0.011376228 -0.017437324
000010 17 a2 9c bc 0f ac 0f bd 14 6b 9d 3c 30 05 c3 3c
       -0.01912026 -0.035076197 0.019216098 0.023806185
000020 2c 81 0b bc 34 d0 0e bd 10 58 9f bc 24 a6 69 3c
       -0.008514684 -0.034866527 -0.019451171 0.014260802
000030 18 1a ed bc 58 06 be 3c 2e 2e a9 bc 34 eb ae bb
       -0.028943107 0.023196384 -0.020651903 -0.005338097
000040 22 b4 0f bc 50 76 7f bc 98 82 b3 3b 18 f0 6c 3c
       -0.008770974 -0.015592173 0.0054782145 0.01446154
000050 fb 8e 0d 3d e0 2f 9f 3b 32 bb fe bc ec c3 99 bb
       0.034560185 0.004858002 -0.031095121 -0.004692545
000060 d0 ba 9e bb b1 1b 06 3d 84 bd 5d 3c 10 7d 4a bb
       -0.004844047 0.032741252 0.013533954 -0.0030897297
000070 10 21 bc bc b0 69 7e 3b 00 12 e9 bc 68 67 15 3c
       -0.022964984 0.003882032 -0.028450966 0.009118892
000080 d0 69 2e 3b 1c 11 69 3c 4c ff 53 bc be 87 74 bc
       0.0026613362 0.014225271 -0.0129392855 -0.014924942
000090 9e f6 7f bc 46 3f 84 3c 98 6f 20 3c 00 22 fe bc
       -0.015622763 0.016143452 0.009792231 -0.031022072
0000a0 40 8a 78 3b 3f 74 0c bd 32 30 c9 bc 98 9e 8f bc
       0.00379242 -0.03429055 -0.024559114 -0.017531678
0000b0 4a e3 b1 3c fd 82 d1 bc ae 65 ec 3c a0 42 e7 bb
       0.021714825 -0.025575155 0.028857078 -0.007057503
0000c0 be 52 1e bc ec 90 14 3c 10 29 c9 bc 40 2c eb bc
       -0.009663282 0.009067755 -0.024555713 -0.028707623
0000d0 50 14 0d bd 25 94 0a 3d 60 c9 7b 3c 94 5d 8a 3c
       -0.0344432 0.033832688 0.015367836 0.016890325
0000e0 4a 41 1b bc 44 34 d2 3c 3c ab c7 3c 50 b4 ca 3b
       -0.009476015 0.025659688 0.024373643 0.0061860457
0000f0 c1 b8 03 3d 00 0c d1 3c 75 98 0b 3d 56 24 95 3c
       0.032158617 0.025518417 0.03408094 0.018205803
000100 34 60 08 bd b4 6c 86 3c e8 c8 dc 3c 33 30 05 bd
       -0.03329487 0.016409256 0.026951268 -0.03251667
000110 c4 76 78 3c ac 4b b8 3c 2d 8d 05 bd a8 cb 85 bb
       0.015165035 0.02249702 -0.03260534 -0.0040831156
000120 b0 9e 47 3b fa b1 dd 3c a0 7a 67 bc 88 c9 c1 3b
       0.0030459575 0.027062405 -0.014128357 0.005913917
000130 e2 55 bd 3c 5f 3b 0f 3d f3 a9 09 3d ec 77 b1 bc
       0.023112241 0.03496873 0.03360934 -0.021663629
000140 d2 ec ca 3c 3e e1 e0 3c a0 29 c3 3c 99 8a 09 3d
       0.024771128 0.027451154 0.02382356 0.033579443
000150 40 6d 6d ba 00 e4 2f 3b 00 b5 64 ba 40 a5 32 3c
       -0.0009057112 0.002683878 -0.0008724481 0.0109036565
000160 a0 4b 01 bd 2c db c7 3c d4 2a 2d bc 44 5f 10 3c
       -0.031566262 0.024396501 -0.010569293 0.008811776
000170 d2 1e c5 3c 00 e3 08 3b a0 33 b1 ba 70 96 a4 bb
       0.024062548 0.0020887256 -0.0013519414 -0.0050228164
000180 da 76 91 3c 74 b1 1b 3c a0 2e 3f 3b 7d d6 0f bd
       0.017756868 0.009502757 0.0029172078 -0.03511666
000190 a2 2f f3 3c dc 84 d8 bb d5 33 0d 3d c0 cf 34 3b
       0.029685799 -0.006607635 0.03447326 0.002758965
0001a0 dc 0f 1a 3c 34 08 6a 3c d2 e2 f3 3c 48 55 cb bc
       0.009403195 0.014284182 0.029771242 -0.024820939
0001b0 6a 70 f7 bc cb 09 c4 bc e0 48 9b 3a b2 15 9e bc
       -0.03020497 -0.02393045 0.001184728 -0.019297455
0001c0 e4 f1 83 3c 0a e5 68 bc 14 8a 77 bc 0c 4a a1 3c
       0.016106553 -0.014214763 -0.015108604 0.019688629
0001d0 79 27 82 bc 06 2a 07 bc 9c f6 3c 3c 10 51 71 3c
       -0.015887963 -0.008249765 0.011533406 0.014728799
0001e0 c6 0d d3 3c 4c 0a 47 3c 7a 98 8d bc 34 94 c0 bc
       0.025763404 0.012148451 -0.01728462 -0.023508169
0001f0 f0 d2 80 3c 00 ab bc 39 c8 6e 88 bc b8 61 c7 bc
       0.015725583 0.0003598556 -0.016654387 -0.024338588
000200 30 32 f5 bb 76 d5 8c 3c e0 0a 68 3c a2 1b ef 3c
       -0.0074827895 0.01719163 0.014162749 0.029187981
000210 16 b5 d0 bc a4 be fd bc 74 93 e7 bb a0 e8 be ba
       -0.025476974 -0.030974694 -0.0070671383 -0.0014565177
000220 f4 ad 1b 3c d8 80 da 3c ec 32 7a bc 56 8d d9 3c
       0.009501923 0.026672766 -0.01527093 0.026556652
000230 56 c4 ab bc 82 fd b3 3c 08 99 cb bc 52 7b cc bc
       -0.020967644 0.021971468 -0.024853244 -0.024961147
000240 00 c3 69 3a 94 3a e8 bb b0 89 5b 3c 78 84 c0 bb
       0.0008917302 -0.007087061 0.0133995265 -0.0058751665
000250 ff e9 01 3d a3 1d 82 bc 42 a7 93 3c be 49 c1 bc
       0.031717297 -0.015883273 0.01802409 -0.023594733
000260 34 7d da 3c 07 80 e8 bc c0 a8 8f 3a b0 1b 0b 3b
       0.02667103 -0.02838136 0.0010960326 0.002122622
000270 52 39 d6 3c 32 9a e7 3c c6 2e ef 3c 3e aa 08 bd
       0.02615038 0.028271768 0.029197108 -0.03336548
000280 fd c5 02 3d a0 a6 36 bc c0 42 3a 3b e0 f6 99 3b
       0.031927098 -0.011148125 0.0028421134 0.0046986192
000290 e0 85 56 3b b0 4b e0 bc 90 be 62 3b ac f1 71 3c
       0.0032733604 -0.02737984 0.0034598447 0.014767092
0002a0 50 c4 79 bc 80 3b f0 39 30 6c 78 bb ca e4 07 bd
       -0.015244558 0.00045820698 -0.0037906282 -0.033177175
0002b0 de 08 d5 bc bc e4 5e 3c 38 54 1c 3c d5 cb 01 3d
       -0.026005205 0.013604339 0.009541564 0.03168853
0002c0 70 9d 0d bb b2 2b 0c bd be 38 a6 3c 46 0d 06 bc
       -0.0021608733 -0.03422136 0.020290729 -0.008181876
0002d0 da 98 f8 3c 85 81 0d 3d 5a f9 f7 3c 06 d5 fd 3c
       0.030346323 0.034547348 0.030270267 0.030985367
0002e0 78 67 fa 3b 1a 79 d8 bc a0 29 cc bb dd 7d bb bc
       0.007641729 -0.026424933 -0.006230548 -0.022887165
0002f0 02 34 b9 bc 29 35 02 3d 70 87 cc 3c f4 28 9c 3c
       -0.022607807 0.03178898 0.024966925 0.019062497
000300 e0 b8 22 3b 9e 67 f7 3c cc 07 0d 3c ac 6a d0 bb
       0.0024829432 0.030200776 0.008607816 -0.0063603725
000310 6a e1 fd 3c 0c 67 bf 3c c0 78 57 ba 3e a7 ed bc
       0.030991275 0.023364566 -0.0008219592 -0.029010411
000320 ec a8 9e bb 76 24 8b 3c 00 50 c0 3a e2 83 22 bc
       -0.0048419144 0.01698516 0.0014672279 -0.009919139
000330 10 8c 98 bb 20 58 c8 bc 4c 80 07 3c 50 2a f4 3b
       -0.0046553686 -0.024456084 0.008270334 0.007451333
000340 80 f1 f9 3b 7a 7d 95 bc 40 f1 08 3b 84 88 2b bc
       0.007627666 -0.018248308 0.002089575 -0.01046956
000350 fe 17 4d bc 63 62 00 bd 33 3e 0a 3d 84 8e 21 3c
       -0.012517927 -0.03134383 0.033750724 0.0098606385
000360 87 49 0b 3d 1e 79 19 bc b6 53 cf 3c ac 47 f0 bc
       0.034005668 -0.0093672555 0.025308471 -0.02933105
000370 f2 0e 71 bc cc 14 98 bc 22 45 27 bc 86 ae 22 bc
       -0.014713036 -0.018564604 -0.010209354 -0.009929305
000380 24 bf d4 bb 6e c4 ab 3c d0 3e 00 3c 68 50 59 3c
       -0.0064925123 0.020967688 0.007827476 0.013263799
000390 94 f8 5b 3c 40 b1 bc bc fc 54 cd bb 72 b2 3a bc
       0.013425965 -0.023033738 -0.0062662344 -0.011395084
0003a0 4a 5b 87 3c 1e 91 a0 bc 08 fa 95 bb 30 3c cd bb
       0.016523022 -0.019600447 -0.004576925 -0.0062632784
0003b0 16 01 df 3c c8 02 5e 3c 80 35 af 3a 6e e6 2c bc
       0.027222198 0.013550468 0.0013367385 -0.010552986
0003c0 a4 b0 ca bc 44 52 eb bc ba f7 e0 3c e1 3b 08 bd
       -0.024742432 -0.02872575 0.027461875 -0.03326023
0003d0 b7 36 e1 bc c6 e6 a2 3c 36 7d f5 3c 64 65 97 bc
       -0.02749191 0.019885432 0.029966932 -0.018480964
0003e0 20 cb aa 3b 84 23 06 bd d9 64 0b 3d 7e 70 f5 3c
       0.0052122027 -0.032748714 0.034031723 0.029960867
0003f0 d0 3d d5 3b 81 77 c9 bc 5b 3c f3 bc 77 1d b1 bc
       0.0065076128 -0.024593117 -0.029691866 -0.021620495

bias f4 [32]
000000 80 14 18 bb d6 94 c6 3c 40 60 2f ba 70 7a f1 3b
       -0.0023205578 0.024240892 -0.00066900626 0.007369332
000010 10 83 09 bc 50 89 7d bb 16 93 04 bd 24 61 cd bc
       -0.008393064 -0.003868658 -0.032366835 -0.025070734
000020 28 a3 7a bc 10 8b c3 3c ba 3c 9f bc 12 81 99 3c
       -0.015297689 0.023870021 -0.019438136 0.018738303
000030 b0 fd 6c 3c fc 50 d4 3c 5a 74 02 bd 70 8b 5f 3c
       0.014464781 0.025917523 -0.031849243 0.013644084
000040 78 b1 ac bc 7c 42 c5 bc 50 8b 06 3b 1c 91 f4 bc
       -0.021080717 -0.024079554 0.0020529814 -0.02985435
000050 a9 b5 b2 bc 70 3b 41 3b 10 9f f4 3b 18 ae 10 bc
       -0.021815138 0.002948489 0.007465251 -0.00883057
000060 2c a0 0f bc 47 51 0a 3d de 13 58 bc f0 c4 35 3b
       -0.008766215 0.03376892 -0.01318833 0.0027735792
000070 e0 c7 c8 bb a8 70 c5 bc 80 36 99 3a d0 79 db bc
       -0.0061273426 -0.02410157 0.0011689216 -0.026791483

weight f4 [32, 32, 5, 5]
000000 ca 10 0f bc f2 b2 ef 3c a9 c0 02 3d e0 52 4f 3b
       -0.00873203 0.029260132 0.031922016 0.003163509
000010 3e 8c fa 3c ce 27 78 bc 06 43 87 3c 60 a3 48 3b
       0.03058445 -0.015146209 0.016511451 0.0030614957
000020 b5 70 10 3d e0 0c f5 3b 22 41 a3 bc 70 d7 50 bb
       0.035263736 0.0074783415 -0.019928519 -0.0031866692
000030 fa 56 e4 3c 50 dc fa 3b 8a cd 58 bc 2c a6 d6 3c
       0.027873505 0.007655658 -0.013232598 0.026202284
000040 80 a5 1d ba ee bf e3 3c 90 c3 7e 3b d2 7b c7 3c
       -0.0006013736 0.02780148 0.0038873889 0.024351034
000050 2e c6 88 bc 76 27 b4 3c 8c 56 cf bb b4 cb 00 bd
       -0.016696062 0.021991473 -0.006327456 -0.031444266
000060 03 84 b3 bc 3a 4c 89 3c 31 94 10 3d 91 d5 df bc
       -0.021913534 0.01675998 0.035297576 -0.027323516
000070 60 0b 1d 3c 5c d3 69 3c e4 59 a0 bb 5e 2f 26 bc
       0.009585232 0.014271583 -0.0048935283 -0.010143129
000080 17 1b 02 3d 74 82 55 3c 0e 77 c9 3c ce ec 6d bc
       0.031764116 0.013031591 0.024592903 -0.014521791
000090 b8 b2 54 3c 00 57 65 3b 4f 39 02 3d bd c3 80 bc
       0.012982063 0.0034994483 0.031792935 -0.015718335
0000a0 92 e1 07 bc 3f 09 0d 3d 20 c9 36 3c ac 5d e5 bc
       -0.008293526 0.034432646 0.01115635 -0.027998768
0000b0 9b 5d 10 3d ae b9 60 bc 76 a0 fb 3c f8 61 db bc
       0.03524552 -0.0137161445 0.030716162 -0.026780114
0000c0 d9 65 03 3d 40 a6 94 3b 60 e8 86 bb 34 ba 40 bc
       0.03207955 0.00453642 -0.0041170567 -0.011763144
0000d0 de f9 ce bc 14 d9 89 bb 60 db 1e bc 90 36 41 bc
       -0.02526563 -0.004206786 -0.009695858 -0.011792794
0000e0 80 54 b2 39 58 8c f0 bc 98 a8 ec bc e8 6e d0 3c
       0.00034013763 -0.029363796 -0.028888986 0.02544351
0000f0 36 d7 ed 3c de 9c c5 3c 80 9a c9 3b 00 3d 4e ba
       0.029033285 0.024122652 0.006152451 -0.0007867366
000100 e0 09 bc ba e0 b6 9b 3a a8 a5 8a bb f0 36 35 3b
       -0.0014346205 0.0011880063 -0.0042311735 0.0027651154
000110 22 ee 89 3c e6 eb 88 3c c0 53 04 bb bc db 2f 3c
       0.016837183 0.016714048 -0.002019152 0.010733541
000120 18 6b 7e 3c 50 a9 90 bc e2 d6 b1 3c a0 19 e1 bc
       0.015528463 -0.01765886 0.02170891 -0.02747804
000130 2c d1 3a 3c 50 39 3b bb c0 89 d2 3c a5 4d d4 bc
       0.0114024095 -0.0028568096 0.02570045 -0.02591593
000140 cc 28 7a 3c 31 33 c7 bc 0b 66 07 3d 74 ae da 3c
       0.015268516 -0.024316402 0.0330563 0.026694514
000150 53 ad 10 bd 24 8f 42 3c e5 48 07 3d 94 cc b2 bc
       -0.035321545 0.011874948 0.033028502 -0.021826066
000160 c2 8e 9d 3c b0 da ba 3c 81 b7 0a bd c8 c7 d8 3b
       0.019233111 0.022809356 -0.03386641 0.0066156127
000170 d2 64 fc bc 2c 62 c4 3c d0 46 55 3b 60 a1 27 3c
       -0.030809794 0.023972593 0.0032543428 0.010231346
000180 d4 ff f1 bc c0 f8 f7 ba 7a 42 20 bc 8f 3a 0a bd
       -0.029540934 -0.0018918738 -0.009781474 -0.033747252
000190 36 71 e8 3c 06 8e eb bc 90 07 e9 3b 4e e6 fa 3c
       0.028374296 -0.028754245 0.007111497 0.030627396
0001a0 b0 0f 3e bc 7a 4c 82 3c ca 15 d7 3c 40 3d 94 bb
       -0.01160042 0.015905607 0.026255507 -0.004523903
0001b0 40 b0 50 3c 4f 01 0b 3d 62 be f6 3c f0 ac 33 3c
       0.012737334 0.033936795 0.030120078 0.0109665245
0001c0 ba 5a 01 bd cc 36 dd 3c 8e 7a 1e bc 04 97 d5 bc
       -0.031580664 0.027003668 -0.009672774 -0.026072986
0001d0 50 3b 52 3b f6 5e e3 3c d4 2c d8 bc d8 04 ab 3b
       0.003207881 0.027755242 -0.026388563 0.0052190833
0001e0 80 ba 7c bb 60 30 e8 ba 4d 4f c4 bc b0 49 88 3c
       -0.003856331 -0.0017714612 -0.023963595 0.0166367
0001f0 59 de 9b bc 3c 0d 08 bd 71 96 9c bc 64 db 2d bc
       -0.019026922 -0.033215746 -0.019114705 -0.010611389
000200 e3 49 00 3d f1 d8 07 3d bc 15 bc bb 9e e6 25 bc
       0.031320464 0.033165876 -0.0057398956 -0.010125784
000210 f0 a1 56 bb f4 77 55 3c 30 27 a1 3b 33 ca 06 3d
       -0.003275033 0.013029087 0.0049180016 0.032907676
000220 90 b1 1e bb 7c 10 8a 3c 16 34 b8 3c 5f 88 05 bd
       -0.0024214722 0.016853563 0.022485774 -0.032600757
000230 08 8f 9e 3b 4c 0f 93 3c b1 e3 0b bd 84 bb 10 bd
       0.004838828 0.01795163 -0.03415269 -0.03533508
000240 50 1e c7 bb 70 1d ff bc 32 25 1a bc dc 69 62 3c
       -0.0060766116 -0.031141967 -0.009408282 0.013819184
000250 00 ac 8d 3c c0 d1 db bc 74 9b 51 bc 42 25 aa bc
       0.01729393 -0.026833415 -0.012793411 -0.020769719
000260 c6 67 e9 3c 68 96 54 bc ac 7b bd 3c a9 ce ee bc
       0.028491866 -0.012975313 0.02313026 -0.029151278
000270 00 bb 7d 3a 98 fa 0b bd 12 d0 fc bc ab 20 b8 bc
       0.0009679049 -0.03417453 -0.030860934 -0.022476515
000280 c2 bc e4 3c 80 23 4b bc a8 43 aa 3c c0 38 f9 3b
       0.027922038 -0.012398601 0.020784214 0.007605642
000290 b8 26 81 3b 72 ec 9d 3c a4 9f bf bc 13 6b 0f bd
       0.003941383 0.019277785 -0.023391552 -0.035014223
0002a0 02 c4 53 bc 12 b3 ea bc e6 46 99 3c 94 fa bf 3c
       -0.01292515 -0.02864984 0.018710565 0.023434915
0002b0 28 97 34 bc b1 88 a4 bc 26 03 c4 3c a4 7d e4 bb
       -0.011022367 -0.02008471 0.023927283 -0.0069729853
0002c0 aa 26 b9 3c 02 ed cb 3c ba 69 9a bc 60 7b cb 3c
       0.022601444 0.024893288 -0.018849242 0.024839103
0002d0 48 31 0a bd c8 26 b5 3b 7a 96 bf bc b2 ed af 3c
       -0.033738405 0.0055283047 -0.023387183 0.021475647
0002e0 36 31 f1 3c dc c1 f4 bc 24 36 0a bd 54 f1 ca 3c
       0.02944241 -0.029877596 -0.03374304 0.024773277
0002f0 24 80 08 bc cb c8 02 3d 40 e8 b0 3c a6 8a e3 bc
       -0.008331332 0.031929772 0.02159512 -0.027776074
000300 b8 f4 94 3b 67 5f 10 bd 00 88 69 39 20 36 32 3b
       0.0045457743 -0.035247233 0.00022271276 0.0027192906
000310 3a 98 f4 3c 9e 06 a7 bc 04 32 35 3c 34 ce d0 bb
       0.029857744 -0.020388898 0.011059288 -0.0063722376
000320 10 82 94 3c 80 f5 1b 3a 80 b3 21 3b 70 22 03 bd
       0.018128425 0.0005949363 0.002467364 -0.032015264
000330 20 44 6f 3b 57 ec fa bc 7f 73 0f bd 04 07 17 3c
       0.0036509112 -0.030630274 -0.035022255 0.009217981
000340 96 87 fd 3c fc f1 1b 3c dc c1 9a 3c ac 00 f2 bb
       0.030948441 0.009518143 0.018891267 -0.007385334
000350 68 33 f4 3b 60 ac 6b 3c 48 04 ed bc bc ac 20 3c
       0.007452417 0.014384359 -0.028932706 0.009806808
000360 60 90 48 3b 11 07 07 bd f6 bb a8 bc 8a b9 59 bc
       0.0030603632 -0.032965723 -0.02059744 -0.013288865
000370 d2 71 c9 bc a0 ea 7a 3b c8 85 ef 3b a8 bc 08 bd
       -0.024590407 0.003828682 0.007309649 -0.03338304
000380 1b 72 f4 bc 96 a5 b6 bc cd f0 0f bd d0 3c 1d bc
       -0.029839566 -0.022295754 -0.035141755 -0.009597018
000390 d0 f9 64 bb 49 42 07 3d b8 64 aa bb c0 46 ce 3a
       -0.003493894 0.0330222 -0.005199995 0.0015737638
0003a0 30 4a 41 3b bb 11 8d bc 63 b2 82 bc 74 45 a6 3c
       0.0029493682 -0.017220369 -0.015954202 0.02029679
0003b0 40 4c f1 bc da f4 a8 3c a8 65 33 3c d1 f9 94 bc
       -0.029455304 0.020624567 0.01094953 -0.018185528
0003c0 d5 49 0e 3d ca 29 cf 3c ca c4 81 bc 28 c1 1e 3c
       0.03473838 0.025288481 -0.015840907 0.009689607
0003d0 b0 83 c0 3b 30 4e 7a bb 7d 05 05 3d 16 f3 de 3c
       0.0058750734 -0.0038193576 0.032475937 0.027215522
0003e0 9e 88 9b 3c 42 73 7d bc 00 7a 71 39 20 60 bb 3c
       0.018986043 -0.015469374 0.00023029 0.022872984
0003f0 b0 5d 10 3c 76 45 87 bc 54 3d 89 bc 54 6e 44 bc
       0.008811399 -0.016512614 -0.016752876 -0.011989195

bias f4 [32]
000000 68 28 90 3b 76 bd cb bc e4 18 8e bb a8 97 b5 bc
       0.004399348 -0.024870615 -0.0043364633 -0.022167042
000010 90 ee 5d 3c 37 35 dd bc 9e a4 ee 3c a8 ed 82 bb
       0.013545647 -0.027002914 0.02913123 -0.003995616
000020 9d d1 0e 3d a4 57 3f bc 24 34 05 bc 7a 01 ad bc
       0.03486787 -0.01167861 -0.008130107 -0.021118868
000030 94 9d a1 3c 22 9e ee 3c c0 1b 10 bd 76 a2 cc 3c
       0.01972846 0.029128138 -0.035182714 0.024979811
000040 7f 13 f0 bc 0e c2 90 3c 2c de 88 bb 2a 56 f1 3c
       -0.029306171 0.017670657 -0.0041768756 0.029460032
000050 50 cd 16 3c 04 d7 1f 3c ec 33 e7 bb 4a df 16 bc
       0.009204224 0.009755854 -0.00705575 -0.00920851
000060 b4 7a 02 bc 42 e5 e6 bc a4 46 03 bd 31 94 d9 bc
       -0.007963825 -0.02818549 -0.03204979 -0.026559921
000070 61 36 b6 bc 3d 1b 08 3d 12 9c c3 3c ab f0 08 bd
       -0.022242727 0.0332291 0.023878131 -0.033432644

weight f4 [32, 32, 5, 5]
000000 e8 46 8c bc 50 11 25 3b 40 d5 c1 3b 5f 16 0a 3d
       -0.017123654 0.002518732 0.005915314 0.03371274
000010 3e 46 0c bd 80 46 82 3c 6e 0f ff bc ea 88 fb 3c
       -0.034246676 0.015902758 -0.031135287 0.030704934
000020 35 3d fb bc 90 8a 31 3b 00 a4 ae b8 77 1d 0f 3d
       -0.030668834 0.0027090646 -8.327514e-05 0.03494021
000030 83 01 81 bc 60 38 b4 3a d0 2d 6f 3b 30 35 53 bc
       -0.015747791 0.0013749711 0.0036495812 -0.012891099
000040 ff f7 00 3d e0 0b 02 bb 1e 5f 8e 3c 80 58 23 3a
       0.031486508 -0.0019843504 0.01737934 0.0006231144
000050 0d e5 8b bc f6 1d ce 3c da 20 9d 3c 88 4a 8d 3c
       -0.017076993 0.02516077 0.019180704 0.017247453
000060 1a 55 fc 3c aa 32 02 bd 00 3f 37 3b 1d 26 0e 3d
       0.030802298 -0.0317866 0.0027961135 0.034704316
000070 58 8b ba bc 03 30 e5 bc 24 4a c0 bc 14 04 02 bd
       -0.022771522 -0.027976995 -0.023472853 -0.03174217
000080 17 f8 d6 bc 18 e4 bb bc 04 cc 54 3c 8c f7 24 bc
       -0.026241345 -0.022935912 0.012988094 -0.010068785
000090 50 80 4e bb 70 74 68 bb bc 23 19 bc e2 fa d7 3c
       -0.0031509586 -0.0035469793 -0.009346899 0.026364747
0000a0 f0 f4 34 3c 10 fa e1 bb c0 6d 59 3a f8 9e 02 bd
       0.011044726 -0.006896265 0.0008294247 -0.031889886
0000b0 b6 4a b1 bc b8 03 9b bc 60 19 d2 3b 96 71 2f bc
       -0.02164207 -0.018922672 0.0064117163 -0.010708233
0000c0 28 11 27 3c c2 fe d0 bc 12 ac 89 3c 74 1a b1 bb
       0.010196961 -0.025512103 0.016805682 -0.005404765
0000d0 b0 8f 0e 3c 18 ba 15 3c 53 4f 05 3d fc e0 c8 bb
       0.00870125 0.0091386065 0.032546353 -0.006130336
0000e0 78 dc 9e bb 88 e2 3a 3c 66 10 cc 3c 28 2c 3b 3c
       -0.0048480593 0.011406548 0.024910163 0.011424102
0000f0 d7 32 0a bd 7e 6a 0c bd ee 26 ea bc 72 e8 0d bc
       -0.03373989 -0.034281246 -0.028583016 -0.008661376
000100 e2 b3 67 bc 56 0f a6 3c 06 02 ad 3c 20 0d 87 3a
       -0.0141420085 0.020270985 0.021119129 0.0010303594
000110 8e 7f a5 3c 20 d2 fe 3a 64 5e f2 bb 00 e8 f2 38
       0.020202424 0.0019441284 -0.007396506 0.000115826726
000120 0e cb 8b 3c 61 d9 fe bc cc 78 a7 3c c9 19 ed bc
       0.017064597 -0.031109514 0.020443343 -0.02894296
000130 58 d3 1b 3c 20 38 93 bb b8 2c f8 bc 9d d5 0b bd
       0.0095108375 -0.0044927746 -0.030294761 -0.034139264
000140 62 94 06 bc 24 25 2e bc 60 f9 b5 bc 00 27 e6 ba
       -0.008214088 -0.010628972 -0.022213638 -0.001755923
000150 2a da 8b 3c b8 62 b9 3b 60 32 b4 3a 38 95 91 3c
       0.017071802 0.00565752 0.0013747923 0.017771348
000160 02 6b 9b bc 30 70 0b 3c 1a 40 9e bc b6 34 08 bd
       -0.018971924 0.008510634 -0.019317675 -0.033253394
000170 00 82 ea 3b 30 39 23 bb e4 22 b5 bc b0 3f a7 bc
       0.0071566105 -0.0024905913 -0.022111364 -0.02041611
000180 8e ac aa bc d6 9b e2 3c 12 a1 fb 3c aa fb aa bc
       -0.020834234 0.027662199 0.030716453 -0.020871956
000190 96 d7 07 bc 64 5e 8e 3c 70 ed 67 3c ec 6c 2b 3c
       -0.008291146 0.017378993 0.014155731 0.010462981
0001a0 07 dd eb bc 6a 70 ae bc 60 2b 45 3b 1c 40 41 3c
       -0.028791917 -0.021293838 0.0030085668 0.01179507
0001b0 40 0d 94 3a 88 b5 16 bc 08 e2 cd 3b 0c f3 9a 3c
       0.0011295453 -0.009198554 0.0062830485 0.018914722
0001c0 88 09 a1 3b aa 7b 1b bc fc 03 a2 bc 5a c6 e0 3c
       0.0049144663 -0.009489933 -0.01977729 0.027438331
0001d0 4e 8f e8 3c 1c c6 0b bd 1c 86 07 bd 44 37 83 3c
       0.028388645 -0.03412448 -0.03308688 0.016017564
0001e0 28 98 de 3b 30 2e 07 bd 58 b3 68 bc 01 f4 ba bc
       0.006793041 -0.033003032 -0.014202915 -0.022821428
0001f0 0a 37 8f bc f0 77 bc 3b e3 58 05 bd fe 75 ff bc
       -0.0174823 0.0057516024 -0.032555472 -0.031184193
000200 05 97 ba bc 7c da e9 bc 30 e8 27 bb 44 15 51 3c
       -0.02277709 -0.028546564 -0.0025620572 0.012761418
000210 80 85 2b 3c 8e e9 ce bc d8 c6 84 bc f6 dd 2a bc
       0.010468841 -0.025257852 -0.016208097 -0.010428896
000220 64 f7 bf bb 35 9b 9b bc b0 cd 1d 3c 1c 1e c0 bb
       -0.0058583487 -0.018994907 0.009631559 -0.0058629643
000230 2b 19 04 3d 85 b5 bd bc 4c b7 dc bc cc 00 ef bc
       0.032250565 -0.023157844 -0.026942872 -0.029175185
000240 0a 4d df 3c 06 06 ab 3c 18 1b f8 bc aa da 84 bc
       0.027258415 0.020876896 -0.030286357 -0.016217548
000250 8a 32 a2 3c 08 02 ae bb a8 f7 e3 3b 49 08 00 3d
       0.01979949 -0.0053103007 0.006957013 0.0312579
000260 da ce a6 bc 2a 5b d4 3c a8 30 b0 bc 76 5c c9 3c
       -0.020362306 0.025922377 -0.021507576 0.024580222
000270 f0 0e 61 3c f0 9f b7 bb f2 3c 60 bc ca 6b db bc
       0.0137364715 -0.005603783 -0.0136864055 -0.026784796
000280 f0 fe 92 3c 90 4e e1 bb 92 b2 b8 3c 09 21 94 bc
       0.01794383 -0.0068758205 0.022546086 -0.018082159
000290 43 52 07 bd f8 c2 67 3c 2e dd 72 bc c0 07 64 3c
       -0.033037435 0.014145605 -0.014823241 0.013917863
0002a0 36 71 d8 3c 1d fe 03 3d 34 78 c0 3c 78 3d ba 3c
       0.02642117 0.032224763 0.023494817 0.022734389
0002b0 4c d5 d2 bc f4 60 10 3c c8 87 73 3c 7c 63 29 bc
       -0.025736474 0.008812178 0.014863916 -0.01033866
0002c0 7c a8 97 bb e0 eb 45 3b a7 a5 c9 bc da de f1 3c
       -0.004628239 0.0030200407 -0.024615122 0.02952521
0002d0 80 36 63 3a f8 8e 9a 3c c0 5a be 3b b7 19 10 3d
       0.0008667484 0.018867001 0.005809158 0.035180774
0002e0 8f 3c 06 3d 28 f3 a0 3b f9 f0 08 bd b7 0c 00 3d
       0.032772597 0.004911799 -0.033432934 0.031262126
0002f0 76 d3 f3 3c 6a 4c bd bc 16 56 a6 bc 1c d3 5c 3c
       0.029763918 -0.023107726 -0.02030472 0.013478067
000300 ea ce 7f bc d0 b6 ec bb 90 39 63 bb f8 94 a3 bc
       -0.015613297 -0.0072239414 -0.003467176 -0.019968495
000310 40 94 ce 3c 40 88 bf 3c d0 dd 82 bb 04 46 70 3c
       0.025217175 0.023380399 -0.0039937273 0.0146651305
000320 40 d9 81 3a 4d 86 05 3d 14 40 95 3c db f6 0e bd
       0.0009906664 0.032598782 0.018219031 -0.03490339
000330 c6 5a b5 3c d4 4b 91 bb ba 71 8d 3c c0 b8 e2 3b
       0.02213801 -0.0044340882 0.017266143 0.0069189966
000340 f6 31 80 3c ad a5 0b 3d 8a c4 a1 bc 00 74 3c 3b
       0.015648823 0.034093548 -0.019747037 0.0028755665
000350 a8 89 8f 3c 80 19 1f 3b c2 27 5c bc fc ef c5 3c
       0.017521694 0.0024276674 -0.013437213 0.024162285
000360 b4 bf 8e 3c 7c f8 86 bc 44 2c 15 3c 3c 52 4a bc
       0.017425396 -0.016475908 0.009104792 -0.012348708
000370 ca ee e7 3c cb ac 07 3d da 5c f9 bc 84 2d 1c bc
       0.028312106 0.033123773 -0.030439783 -0.009532336
000380 02 86 e1 3c b4 f4 0a 3c 1c 2c ec bc 24 81 08 3c
       0.02752972 0.008481193 -0.028829627 0.008331571
000390 d2 83 ef 3c ec 52 de 3c 94 4f a7 bb d8 3a aa bc
       0.029237662 0.02713915 -0.005105922 -0.020780012
0003a0 f6 ff db 3c 6a 92 84 3c 04 d4 78 3c 56 ce 00 bd
       0.02685545 0.016183097 0.015187267 -0.031446777
0003b0 00 c0 1e b9 bc 68 5a 3c 13 f1 f5 bc 1c bf 2e 3c
       -0.0001513958 0.013330635 -0.03002218 0.010665681
0003c0 1b e4 0f 3d c0 0d 1c ba 22 6e 80 bc f0 54 85 bb
       0.035129648 -0.00059529766 -0.015677515 -0.004068963
0003d0 da 6e a7 3c 4a f7 a9 3c 50 2d 51 bb f7 4f b8 bc
       0.0204386 0.0207478 -0.0031917877 -0.022499068
0003e0 72 d9 82 bc 29 fd 85 bc 44 fd b9 bc 20 e6 f0 ba
       -0.015972827 -0.016356068 -0.022703774 -0.001837913
0003f0 a0 91 b2 bc f4 50 ab 3c e0 62 89 3c d0 97 c4 3b
       -0.021797955 0.020912625 0.01677078 0.005999543

bias f4 [32]
000000 18 16 81 3b 02 b0 ec 3c b0 44 ee bc cd 6a 9f bc
       0.0039394014 0.02889252 -0.029085487 -0.019460106
000010 9e ae e2 3c 4e 0a bc bc e5 77 0e 3d e8 c2 96 3b
       0.027671155 -0.022954132 0.03478231 0.0046008714
000020 fa 75 e1 3c 61 01 02 3d 56 f2 87 3c af f4 07 3d
       0.027522076 0.031739596 0.016595047 0.033192333
000030 a4 4a bd bc 38 d6 cb 3c f0 e4 8b bc 04 68 05 3c
       -0.02310688 0.02488242 -0.01707694 0.008142475
000040 90 16 0c bd ca 10 aa 3c d1 89 8c bc a2 40 ca 3c
       -0.034201205 0.020759959 -0.01715556 0.024689022
000050 90 25 3d 3c 1f b1 10 3d 08 9e 50 3c e4 eb ce 3c
       0.0115446 0.035325166 0.01273299 0.025258966
000060 7c a1 1c 3c 00 fc e4 ba c0 14 15 bb b8 c7 e6 bc
       0.009559985 -0.0017470121 -0.0022747964 -0.028171405
000070 b8 00 1d 3c 0c df a2 bc 46 f4 f3 3c 9e 99 b7 bc
       0.009582691 -0.019881748 0.029779565 -0.022412118

weight f4 [32, 32, 5, 5]
000000 48 43 ac 3b a0 83 99 bc 33 62 0b 3d 50 58 1a bc
       0.005257044 -0.018739522 0.034029197 -0.009420469
000010 e0 7f 4a bc 36 a8 f2 3c 86 49 c1 bc d4 5b de bc
       -0.012359589 0.029621225 -0.023594629 -0.027143396
000020 24 a9 e1 bc 00 0f 59 39 ae 9c e9 3c 56 4e ff 3c
       -0.027546473 0.0002070032 0.028517094 0.031165283
000030 a6 b9 5e bc ce b2 f1 3c 77 29 80 bc e0 07 3c bc
       -0.013594067 0.029504206 -0.015644772 -0.011476487
000040 20 ab 50 3c 46 75 0f bc a2 c8 9c 3c 80 c6 04 bd
       0.012736112 -0.0087559875 0.019138638 -0.032415867
000050 27 62 86 bc 2c 91 37 3c f7 83 0f 3d c0 fe 78 ba
       -0.016404225 0.011204045 0.03503796 -0.000949841
000060 4c a2 a5 bb 51 18 f8 bc b0 8d b7 3c 78 9c ac 3c
       -0.0050547477 -0.030285032 0.022406429 0.021070704
000070 c0 7c 2b bb 80 3b c8 bc 6e 6b 47 bc a3 13 88 bc
       -0.0026166886 -0.024442434 -0.012171609 -0.016610926
000080 cd 55 8c bc d2 1b f8 3c c8 c3 b4 bc 4e 23 98 3c
       -0.017130757 0.030286703 -0.022066012 0.018571522
000090 54 9b e8 bc 5e cd 08 bd 0e f0 97 3c 95 74 04 3d
       -0.028394379 -0.03339898 0.018547084 0.032337744
0000a0 78 fb 0f bd 82 70 e9 3c 1a ba cb 3c 52 fd e5 bc
       -0.03515193 0.02849603 0.024869014 -0.028074894
0000b0 10 98 e6 3b 2a b8 f2 3c 30 58 5e bb 72 96 d8 3c
       0.00703717 0.029628832 -0.0033927076 0.026438925
0000c0 04 bc 0e bd 2f 4a 0a bd 36 92 46 bc 87 a4 01 3d
       -0.034847274 -0.033762153 -0.01211982 0.031651046
0000d0 38 6d e2 3b 32 51 ed bc b4 92 a1 bb 80 6d 46 3b
       0.0069099925 -0.028969381 -0.0049308185 0.003027767
0000e0 44 6a 1a 3c 48 2b 36 3c d8 8c b4 3c d8 f8 80 3b
       0.00942475 0.0111187175 0.022039816 0.0039359145
0000f0 54 d2 c2 bb 6a 12 de bc f2 3b d5 3c 8e c4 97 3c
       -0.005945483 -0.02710839 0.02602956 0.018526342
000100 30 bb 32 3c ad af 03 bd d6 4b ef 3c e6 e1 ec 3c
       0.010908887 -0.03214996 0.029210966 0.02891631
000110 da 8c b0 bc 00 12 9e 3b 90 16 f3 bc e7 24 e4 bc
       -0.021551538 0.004823923 -0.029673845 -0.027849628
000120 ce ff 38 bc 60 27 a9 3b ce a0 1b bc c0 41 7b bb
       -0.011291457 0.0051621646 -0.009498788 -0.003833875
000130 60 0d 75 3b 5a be 0d bd 38 81 01 bc 1a 29 df bc
       0.0037392005 -0.03460536 -0.007904343 -0.027241278
000140 18 b4 de bc cc 17 1b 3c da 44 55 bc 02 d9 30 bc
       -0.027185485 0.009466123 -0.013016904 -0.010793926
000150 5c 93 a0 3c 7a 08 c9 3c 97 83 dc bc 46 e0 be bc
       0.019601516 0.024540175 -0.026918216 -0.023300301
000160 c2 97 b1 3c a1 8c 87 bc d8 d3 13 bc 2e b1 bf 3c
       0.02167881 -0.01654655 -0.009022675 0.023399916
000170 c4 dc d8 bc 62 4e a2 3c 50 a6 b4 bb e8 e3 86 3b
       -0.026472457 0.019812766 -0.00551299 0.004116524
000180 e0 92 78 bc e1 44 06 bd a6 29 b2 3c 54 e1 ed bc
       -0.0151717365 -0.03278053 0.021748375 -0.029038109
000190 00 82 3f bb f4 95 a0 bc c0 25 b4 3b a0 17 34 bb
       -0.0029221773 -0.019602753 0.005497664 -0.0027479902
0001a0 7e a9 d2 3c ad a6 0c bd e6 36 22 bc 64 fa 9c bc
       0.025715586 -0.034338642 -0.009900784 -0.019162364
0001b0 1c 8b 57 3c 30 d0 98 3c 67 52 f1 bc 9d 06 89 bc
       0.013155725 0.018653959 -0.029458238 -0.016726786
0001c0 c4 67 6d 3c 28 07 87 3b 8a 5f 3c bc ff 59 8e bc
       0.014490072 0.004120726 -0.011497388 -0.017376898
0001d0 f0 ec 4d bb 5a ac cb 3c 00 7c 3e 3a 81 e5 0a 3d
       -0.0031421743 0.024862457 0.0007266402 0.03391028
0001e0 7a 06 c5 bc 41 68 0e bd 96 e1 5d bc 60 d1 0b bc
       -0.02405094 -0.034767393 -0.013542553 -0.008533806
0001f0 1e f7 e3 bc f3 33 ca bc 10 95 a4 3b b6 03 7f bc
       -0.027827796 -0.024682974 0.0050226524 -0.01556485
000200 e4 b6 ea bb ad e5 08 3d 00 96 2b 3c e1 c5 07 3d
       -0.0071629155 0.03342216 0.0104727745 0.033147696
000210 b0 4c 93 3c 06 53 f1 3c 3a 3b 0c bd ec 90 13 3c
       0.017980903 0.029458534 -0.03423617 0.00900672
000220 78 52 da bb dc 95 00 3c 32 60 f7 3c 18 b7 cf bc
       -0.006662663 0.007848229 0.030197237 -0.02535586
000230 fe ac f7 3c d8 5d 8a bc 0e 07 dd 3c 26 7c 37 bc
       0.030233856 -0.016890451 0.026980903 -0.011199033
000240 90 39 6c bc 9e 39 b4 bc aa 64 ae 3c ce e0 2e bc
       -0.014418021 -0.02200013 0.021288235 -0.010673715
000250 3a 31 8f 3c 7b 0b 0b 3d c4 d4 11 3c 2c 10 86 3c
       0.017479528 0.033946496 0.008900825 0.016365133
000260 c1 64 d9 bc f6 5b ed 3c 38 45 b5 3c 8f f2 0e 3d
       -0.026537301 0.028974514 0.022127733 0.03489929
000270 4c a9 0c 3c 2c 7a 3c 3c 93 af 07 3d 6e 40 aa 3c
       0.008585285 0.011503737 0.033126425 0.020782676
000280 d8 ac b7 bc 20 fa eb 3a 8c a6 9d bb ce c2 a8 bc
       -0.022421286 0.001800362 -0.0048111137 -0.020600703
000290 c2 90 ef 3c 40 50 6a bb fa f4 e9 3c b4 cb 93 3c
       0.02924383 -0.00357534 0.028559197 0.01804147
0002a0 67 ac 10 3d 7d 8b 8a bc 3a 03 db 3c 31 73 d4 bc
       0.035320666 -0.016912216 0.026734937 -0.025933834
0002b0 08 b5 64 bc d4 7e a6 3c ca 94 93 bc 88 98 80 3c
       -0.013959177 0.020324148 -0.018015284 0.015697733
0002c0 08 fa 2b 3c ac 17 a6 bb f4 54 e4 bb 58 6b 0c 3c
       0.010496624 -0.00506874 -0.006968135 0.008570515
0002d0 da 28 f2 3c ce 34 09 bc 68 f8 cd 3c ec 9a 0d 3c
       0.029560495 -0.008374406 0.025142863 0.008642893
0002e0 95 74 04 bd 0a 93 02 bd 20 15 dd ba 04 05 5a 3c
       -0.032337744 -0.03187851 -0.0016867258 0.01330686
0002f0 ee f0 da bc 5e 12 96 bc 50 8f 8f bc 16 58 b2 3c
       -0.026726212 -0.018319305 -0.017524391 0.021770518
000300 30 39 46 3b 9e 85 e0 bc 2c e0 a3 bc 3a 09 ae bc
       0.0030246489 -0.027407464 -0.020004354 -0.021244634
000310 ec 45 92 3c 80 7f db ba 10 c4 7f 3c 1e 51 9e 3c
       0.017855607 -0.0016746372 0.01561071 0.019325789
000320 b7 7d d9 bc e4 3d c8 bb 9a 4b 74 bc 52 63 9b bc
       -0.026549203 -0.0061108936 -0.014910603 -0.018968258
000330 dc 62 a4 3c d0 4a d5 bc b9 57 86 bc 0e 1a c3 bc
       0.020066671 -0.02603665 -0.016399251 -0.023816135
000340 66 be 62 bc 38 2d af 3b 38 83 76 3c ef 77 06 bd
       -0.01383934 0.0053459667 0.015045933 -0.03282922
000350 aa a9 1e bc 2e 8b 63 bc 42 7f e1 3c e0 35 2e bb
       -0.009684006 -0.0138881635 0.027526502 -0.0026582405
000360 2f 67 03 bd 66 dd e2 bc 60 12 2b 3c 18 3a 59 3c
       -0.032080825 -0.027693462 0.010441393 0.01325848
000370 00 13 5b 39 94 fa 6f 3c 54 7b d0 3c 1c 8d c8 bc
       0.00020892546 0.014647145 0.025449432 -0.024481349
000380 08 e1 b9 bb bb 19 95 bc 0e 3b b4 3c 62 4f c9 3c
       -0.005672578 -0.018200746 0.022000816 0.024573985
000390 10 e7 2d 3c 68 45 40 3c e6 f9 8d bc d0 a8 ba bc
       0.010614172 0.011735298 -0.017331075 -0.022785574
0003a0 a4 03 6c bc f1 7f cf bc 84 82 9a 3c cc 39 e9 bb
       -0.014405165 -0.025329562 0.018861063 -0.0071174856
0003b0 e0 dd c1 bb 5f e2 e4 bc 9e 7c db 3c c6 47 c1 bc
       -0.005916342 -0.027939973 0.02679282 -0.023593795
0003c0 98 ac 9e 3b 35 19 d9 bc 39 ca 0c 3d e4 77 75 3c
       0.004842352 -0.026501277 0.034372542 0.014982197
0003d0 d8 aa ae 3b fc d1 e7 bb 46 76 f3 3c b2 0e 8e 3c
       0.0053304248 -0.0070745926 0.029719483 0.017340992
0003e0 e0 b4 8f 3a cd f7 87 bc 60 c5 4e 3b ab 8c 9b bc
       0.0010963939 -0.016597653 0.003155075 -0.018987974
0003f0 37 61 f1 bc 80 41 80 3a 60 2d 80 ba 27 30 0c 3d
       -0.029465301 0.0009785146 -0.0009779148 0.03422561

bias f4 [32]
000000 0a b6 4a bc 86 00 ae 3c 02 fa d2 3c 80 fc a9 3c
       -0.012372503 0.021240484 0.025753979 0.020750284
000010 56 6d e6 3c bb f3 05 3d 0c 17 b3 bc d8 88 c4 3c
       0.028128307 0.032703143 -0.021861576 0.023991033
000020 80 1f 3c bb 36 47 8e 3c f9 dd 03 bd 5e 79 f3 3c
       -0.00287053 0.01736794 -0.03219411 0.029720958
000030 8e 16 27 bc 60 6e 67 bc 04 cc d2 3c 30 2c ac 3c
       -0.010198249 -0.014125437 0.025732048 0.021017164
000040 d2 ac bc bc 80 32 08 3c dc 3f e6 bb dc 24 66 3c
       -0.023031626 0.008312821 -0.0070266556 0.014046874
000050 7e 68 bc bc 06 38 be 3c 10 76 3e bb 6a 30 b0 bc
       -0.022999045 0.023220073 -0.002906207 -0.02150746
000060 b7 4e 0e 3d e2 de f9 3c eb 17 8d bc 20 f6 6c bc
       0.034743037 0.030501787 -0.017223319 -0.014462978
000070 4e 82 a9 3c 98 bb a6 3b 60 6a 13 3b b8 cd e4 bb
       0.020692017 0.005088281 0.0022493824 -0.0069825314
